function/12) skip-really-wide/10.pth (torch, 925910 bytes, 556 tensors)

weight f4 [10, 1]
00000000: b01b 06bf c627 9ebc 2356 4ebf 3f92 b8be
00000010: 0e10 8b3f 5b9e 58bf 730e d53e 6107 49be
00000020: 75e0 8dbe d49a 883f
-0.52386 -0.019306075 -0.80600184 -0.36049077 1.0864275 -0.8461663 0.41612586 -0.19631721
-0.2771031 1.067225

bias f4 [10]
00000000: 8978 ba3c 81ab ca3e 7d12 36be 1aae 7ebf
00000010: b0fb d33e 2416 2dbf d922 733f 9626 923f
00000020: a74f 793e 89c0 4b3f
0.022762554 0.39583972 -0.1778049 -0.9948441 0.4140296 -0.6761191 0.9497505 1.1418025
0.24346791 0.7959066

weight f4 [10, 10]
00000000: ed98 2abe 019d 3ebe d54b 3cbe eaa8 5ebd
00000010: 5988 45be dc7f 61be 32b0 9bbe 966c c3be
00000020: ee72 7b3e 9334 953d 6137 8c3e 566e ac3e
00000030: bd51 febc 5695 e13e 332e bfbe 7bc7 183c
00000040: 0abf 873e 5d06 6bbc a3ff 03be ba6b 16be
00000050: c984 bb3d 74f2 3e3e c472 ef3d a120 4abd
00000060: a4e7 c03c 2ed8 0dbe ca49 503e fa30 5a3e
00000070: e7c9 323e a23c 263e 228b 91bd 1b31 4cbe
00000080: 3f21 60be e52c ddbc e5ad 22be e14a 3d3e
00000090: d6a9 96be 0bd7 32be 89b0 823d f55b 00bd
000000a0: e4e9 0b3e 6a12 92be 9860 ae3d 308a 083d
000000b0: 282f 53be fa60 f23d a586 ab3e 403f 943d
000000c0: 94af fb3d fec9 6d3e b26b 0e3c 6a18 063d
000000d0: 1122 313e b79f ec3e 6ea1 1cbc a816 a03e
000000e0: 94df 6fbe 3c95 16bd 8472 dabd 79bf cd3c
000000f0: 8e95 5dbe dd96 d2bd fae5 7f3e a5c0 2b3e
00000100: 58fd 48be fcb4 853e 9db5 5abe 178c a3be
00000110: 6c92 463e 4260 9ebd 6cdc 4abe 3c21 f23d
00000120: a597 b7be 0a79 a43d 2e5a 963e b5b2 5c3e
00000130: f105 d03d 1069 4d3d 7d1c 003e d8cc b73d
00000140: e959 fe3c 6ee7 863e 090f 3abd 12ae 2ebe
00000150: 2d79 683d 9e9f 13be df7e 7d3e 2144 c1bd
00000160: 6e94 82be 48ef 25bd d551 673e 2783 833e
00000170: 8bff 213d 3a5e 093e 3dc5 cdbd 87fb 22bd
00000180: c206 d5bd e2bd 543e c2bb 2abe 49c9 01be
-0.16659899 -0.1861458 -0.18388303 -0.054360308 -0.19290294 -0.2202143 -0.30407864 -0.38168782
0.24555561 0.07285418 0.27386 0.3367793 -0.031044835 0.44059247 -0.37339935 0.009324904
0.2651294 -0.014344779 -0.12890486 -0.14689532 0.09156186 0.18647176 0.11691812 -0.049347524
0.023547955 -0.13851997 0.20340648 0.21307746 0.17459832 0.16234067 -0.071066156 -0.19940607
-0.21887682 -0.026998946 -0.15886648 0.18485595 -0.2942645 -0.17464845 0.06381328 -0.031337697
0.13663441 -0.28529674 0.085145175 0.03333491 -0.20623457 0.11834903 0.33501163 0.072386265
0.12289348 0.23221585 0.008692669 0.032738127 0.17298152 0.46215603 -0.009559972 0.31267285
-0.23425132 -0.036763415 -0.10666373 0.025115715 -0.21639082 -0.10282681 0.24990073 0.16772707
-0.19627893 0.26114643 -0.21358342 -0.31942818 0.19391793 -0.077332035 -0.19810647 0.11822745
-0.35857883 0.08030899 0.29365677 0.21552546 0.10157383 0.050149024 0.12510867 0.08974618
0.031048732 0.26348442 -0.045424495 -0.1705859 0.056756187 -0.14416358 0.24755429 -0.09436823
-0.25503868 -0.0405114 0.2258981 0.25686 0.039550345 0.13414851 -0.10047386 -0.039790656
-0.104016796 0.2077556 -0.16673186 -0.1267444

bias f4 [10]
00000000: 22e6 8e3d 2dad 593e d48f fbbd ff34 413e
00000010: a93f 1e3e da40 663d f799 a6be c098 063e
00000020: c751 903e 1289 cc3d
0.06977488 0.21257468 -0.122832924 0.18867873 0.15453972 0.05621419 -0.3253934 0.13144207
0.2818739 0.099870816

weight f4 [10, 10]
00000000: 5fb3 56be 2800 063e f463 7fbd 467e 033e
00000010: 706a 0d3e 798c 0e3e 32dc abbd 55c4 94be
00000020: f5b3 92be 9551 0e3e f8ef 863e 590e b8be
00000030: 361c a93d 3b9c 4f3d dfe9 763e 5987 79be
00000040: 36c4 adbb a599 b83e 4223 013e 79b3 16bd
00000050: fcdc 25bd 525a c2be 7984 013e 36bf 8dbe
00000060: 4dfa 8e3e 924a 67be 498c bbbd 08be 8e3e
00000070: 0389 a43e 5da8 f4bd 3ce7 c2bb 430a c7bd
00000080: a9ac edbd 1efa ac3b 41b8 19be 0de1 e3bd
00000090: faaf 583e aadc 9b3c 7979 6c3e 1f7e 993e
000000a0: 66c3 673e 76a2 973e cd4a 8e3e 13b9 49be
000000b0: 4f41 95bc 82d9 84be 8827 a43e a61a b93b
000000c0: fdac 42bc cf23 9c3e 5822 ad3d 292f 1a3d
000000d0: 6798 62be 393e 523c aba5 7ebe 97c9 8fbc
000000e0: 2f55 8abd 34f2 273e 13ea 99bc 058a 763d
000000f0: 2ad9 6dbe 8ffe 82be 88d3 343e 9c5b 85be
00000100: 28f2 14be e0d4 443e b9b4 a7be d798 67be
00000110: cb24 ab3e 4fef 43be 1b94 eb3d b4ff aabd
00000120: 076d af3e 027d 6ebe 3da7 2abe 4584 0ebe
00000130: e54d 473e 3900 773c d8a8 88bd 3011 b4be
00000140: 6ff6 38be ceaf 343e 2cf2 eabd 45a5 aa3d
00000150: c871 09be f0b2 1a3f 7bcb 863e fd2c 01be
00000160: 3594 af3c a792 e9bd 13e3 2abe 62f5 82be
00000170: c9f0 9f3e 0281 90be 705c 4bbd a283 40be
00000180: 0218 0cbe cd15 863e 7e93 d4bd 11d3 ca3d
-0.20966862 0.13085997 -0.062351182 0.12841138 0.13810134 0.13920774 -0.08391608 -0.2905604
-0.2865292 0.13898309 0.26354957 -0.35948446 0.08257334 0.050686102 0.24112652 -0.24368037
-0.005302931 0.3605472 0.12611106 -0.036792252 -0.04049395 -0.37959534 0.1264819 -0.27684945
0.2792534 -0.2258704 -0.09157617 0.27879357 0.32135782 -0.11946175 -0.0059479754 -0.09718754
-0.11605198 0.0052788397 -0.15011694 -0.111269094 0.2116088 0.01902612 0.23093213 0.29979035
0.22633132 0.29616135 0.27791443 -0.19699506 -0.018219618 -0.25947195 0.3206141 0.0056489287
-0.011882064 0.3049607 0.08453816 0.03764263 -0.2212845 0.012832218 -0.24867885 -0.01755218
-0.06754529 0.16400987 -0.018788373 0.06019022 -0.23227373 -0.25584838 0.17658818 -0.26046455
-0.145455 0.1922183 -0.32755068 -0.22616898 0.33426508 -0.19134258 0.11502858 -0.08349553
0.3426287 -0.23289874 -0.16665359 -0.13917644 0.19463308 0.015075737 -0.066728294 -0.35169363
-0.18062757 0.17645189 -0.11471972 0.08332304 -0.1342231 0.60429287 0.26327118 -0.12614818
0.021432975 -0.11404925 -0.16688184 -0.25577837 0.31238392 -0.28223425 -0.049648702 -0.18800214
-0.13681033 0.26188508 -0.103796944 0.09903539

bias f4 [10]
00000000: 9048 3fbe c8d1 943e e67e c03e b64f f7bc
00000010: 188a 81be f752 0f3e cdd3 4abe 7a33 b93e
00000020: 18aa 463e f84a 1cbe
-0.18680024 0.290663 0.37596816 -0.030189376 -0.2530067 0.13996492 -0.19807358 0.36172086
0.19400823 -0.15262973

weight f4 [10, 10]
00000000: d2ad 63be 9cb4 95bd b449 823c 7492 32be
00000010: b5d0 0bbd 9bc0 953e fe6d 953d e69d bdbd
00000020: 22d4 cfbe ac83 48be 744b 1abe 42e9 8d3e
00000030: f7e9 96be 3cf8 2bbe a779 ccbd 4b1c 1dbd
00000040: d05b 2fbe 989c 6bbe 2368 813c a21c 73be
00000050: 4b1d 05be fcc9 80be 69d6 ab3c b6a1 e3bc
00000060: a4ae 1b3e 2d2e c43d 78ff d53d 0cdc 4bbe
00000070: a043 21bc 5b15 0b3e 5443 babe 069b 693e
00000080: d940 7b3c 6de6 b4bd 10e7 3abe 991a ab3e
00000090: 8dfc 3c3e 7598 1f3e 08b8 3f3d ed1c f4bd
000000a0: 62dd 43be 4835 b6bc 8603 383d 548a aa3e
000000b0: 106e ab3e be15 febd ddff 123e a517 6bbe
000000c0: e6ca b1be 700b 5bbe e670 083e 2bd1 213e
000000d0: 5d49 84bd 2f03 223d 4bde 8abe 7008 393e
000000e0: 0ec6 9abe 3113 9cbe cadd 3b3d b372 fe3d
000000f0: 0106 8c3d 0426 033e b9da 9b3e e5c9 033e
00000100: ab22 34be da9d b23e 7b93 273e 87b1 3a3e
00000110: 1723 063b 28f1 503e a550 47be 43d3 b43e
00000120: f7b8 7d3e a6de 593e 073a a7be dfc4 4e3d
00000130: 4ccb b7be e46d 123e 874f 8c3d 10d8 213e
00000140: 7f33 84bd 714d 64be 1f59 e03d 7b62 6cbe
00000150: d9d1 78bd ae37 833e 8bdf d73d e6fa 6fbd
00000160: ac00 663e 6843 613e ec40 4dbd efac 5e3b
00000170: bb90 80be 5781 9a3e 0325 0bbe b32f cb3b
00000180: 2c08 5dbd e202 edbb 0403 04be 1624 513e
-0.22234276 -0.07309839 0.015904285 -0.1743868 -0.034134585 0.2924851 0.0729637 -0.09258632
-0.40591532 -0.19581479 -0.15067846 0.27717024 -0.29475376 -0.16793913 -0.09984141 -0.03835706
-0.17124867 -0.23008955 0.015796727 -0.23741391 -0.12999456 -0.25154102 0.020976262 -0.02778707
0.15203339 0.0957912 0.104491174 -0.1990816 -0.009842783 0.13582365 -0.36379492 0.22813043
0.015335285 -0.08833013 -0.18252206 0.3341873 0.18455715 0.15585501 0.046806365 -0.1191958
-0.1912742 -0.022242203 0.044925235 0.3330866 0.3348241 -0.12406491 0.14355417 -0.22958238
-0.34725112 -0.21391082 0.13324317 0.15802447 -0.064593054 0.039553817 -0.2712272 0.18069625
-0.3022923 -0.30483392 0.04586581 0.12424221 0.06837083 0.1280747 0.3044031 0.12869985
-0.1759135 0.34886056 0.16364853 0.18231784 0.0020467693 0.20404494 -0.19464357 0.3531743
0.2477759 0.2127634 -0.3266146 0.05048072 -0.3589729 0.14299732 0.06851106 0.15805078
-0.064551346 -0.22295167 0.109544985 -0.23084442 -0.060747 0.25628418 0.10540684 -0.058588885
0.22461194 0.2199837 -0.050110742 0.0033977588 -0.2511042 0.30176803 -0.13588338 0.0062007545
-0.05396287 -0.0072330097 -0.12891775 0.20423922

bias f4 [10]
00000000: 4d6d 1e3e 9d92 683d bc22 ddbd b05b 353e
00000010: 17fa c1be 3ef0 cbbd 4083 20be b306 46bd
00000020: 265d a33e c8fb 40be
0.15471382 0.056780446 -0.10797641 0.17710757 -0.37886116 -0.09957932 -0.15675068 -0.048346233
0.31907004 -0.18846047

weight f4 [10, 10]
00000000: 8c55 77be 74cc 6c3e 509d 9fbe 0d05 2c3c
00000010: 57e1 073e c0f1 9d3e be2e 8f3d c8cf 343c
00000020: 7f6a 48be 7a8b f5bd af48 3ebe 44f0 06bf
00000030: ab06 9abd 067a af3d d28e 77bd e82c 573e
00000040: 12cc 6b3d 9cb4 ab3c a173 febd 0328 a63e
00000050: 8aea 433e 8c2f cdbe d0f0 c43d 1361 af3c
00000060: 709f a73e 2822 4abe 2036 39be 0ce9 4ebe
00000070: c0a6 963d f0f6 66bd 2f59 9fbe 35a2 b8bd
00000080: 036d 5bbd 893a 29be 5d1f 393e c764 ce3d
00000090: 633d a4be d2a7 1e3e e894 e53d 50c7 7abc
000000a0: bd8d b63c 9b8f d3be de91 853b 2aa4 a0bd
000000b0: 04e4 b63e 5dae 883c 6b6f a63e 7b07 b0be
000000c0: cbee 20be f574 2a3d 8207 293e de54 97bd
000000d0: 6f0d 41bd e5f3 acbd b31b 84bd 708f 4c3c
000000e0: a5af c7be 4ab4 013d 0154 73be c0f5 14be
000000f0: 582b c33e 3c42 8c3e d652 04be 49d0 1b3e
00000100: 4531 433d 8fb9 5e3d 8c2b ac3e 6b2f d73e
00000110: 263f d7bd ec32 8fbe 2106 2fbe 92ff b83d
00000120: 42a6 0abe b435 9a3e 3a07 313d 333a 83be
00000130: 95a4 833e e859 8a3e ec11 c33e 76fd 26be
00000140: f66a f93d cfac 94bd f19a 97be 5dc5 b0bc
00000150: 4606 84bd 1dbe 92be 36b6 adbe 8b04 a7bd
00000160: 26be 463e 4ffb 1ebd 3eeb 97bd 6602 3cbd
00000170: 34d5 c8be d812 5dbd 64e1 403e 2d07 b03e
00000180: 8aed 2dbe afa0 88bc 5054 c7be 73c0 6f3e
-0.24153727 0.23124868 -0.31174707 0.010499251 0.13269554 0.30848503 0.06991337 0.011035867
-0.19571875 -0.11989494 -0.18582414 -0.52710366 -0.07520803 0.08568196 -0.06043894 0.21013224
0.057567663 0.020960145 -0.12424398 0.32452402 0.19132438 -0.40075338 0.09616244 0.021408593
0.3273883 -0.19739592 -0.18087053 -0.20206088 0.07356024 -0.05638784 -0.3112273 -0.090153135
-0.05357076 -0.16526236 0.1807837 0.100778155 -0.32078084 0.15493706 0.11210042 -0.015306309
0.022284383 -0.413205 0.0040762266 -0.07843812 0.35720837 0.016684705 0.3250688 -0.34380707
-0.15716092 0.041615445 0.1650677 -0.07389234 -0.047131952 -0.08444957 -0.06450596 0.01248537
-0.39001194 0.031666078 -0.23762514 -0.14546871 0.38119006 0.27394283 -0.12922224 0.15216173
0.04765441 0.05437618 0.33626974 0.42028365 -0.105100915 -0.27968538 -0.17092182 0.09033121
-0.13539985 0.30119097 0.043219782 -0.2563034 0.25711504 0.27021718 0.3809961 -0.16307625
0.12178604 -0.07259523 -0.29610398 -0.021578485 -0.06446509 -0.2866067 -0.33928078 -0.081551634
0.19408473 -0.038813885 -0.07417916 -0.045900725 -0.3922516 -0.05397305 0.1883598 0.34380475
-0.16985145 -0.016678182 -0.38931513 0.23413257

bias f4 [10]
00000000: 181b f63d 82df d6be 59b9 f53c 529e 80bd
00000010: 85c0 95be 2e77 0f3e 94fb 843e 41c3 eabd
00000020: e70a 373e aca2 48be
0.120168865 -0.41967398 0.029995607 -0.06280197 -0.29248443 0.14010307 0.2597319 -0.11463023
0.17875253 -0.19593304

weight f4 [10, 10]
00000000: cb69 25be f087 893d ae87 18be c4d9 91be
00000010: cf99 fd3d 5f7c c23e 2bc9 d6bd ddc5 383e
00000020: 8f91 75be 725c 0dbe dca1 cb3d 5f98 78be
00000030: 384c 953e 30f1 293e e229 58bc d5de 4ebd
00000040: 03cb 1bbe 8989 8fbe c1ef 093d cee1 b93e
00000050: 7c79 883e 721e aa3e 7889 b73e 8d68 9a3e
00000060: 8eba b43e ed17 693d 22b5 f6be efe0 56bd
00000070: cb39 bfbc 5bb7 00be 86d0 77be e9c8 f03d
00000080: d00f c33e f195 31be 045b 6c3e b4c4 8fbd
00000090: 1959 bfbe 70b5 8dbe 72fa b4be a030 2bbe
000000a0: 516f 7ebd 31f2 c43c 0f2a 99be 0b5f 8e3d
000000b0: 492e ebbd 4ea4 bcbe 765d 98be fc38 2f3e
000000c0: cb89 703e b53d 563d 8343 8ebe 8760 09bc
000000d0: 11fa 573d 2251 b5bd a63b de3d 66b3 293d
000000e0: 740f b5be 6c74 9cbe 730c a93d d4a1 983e
000000f0: 383d 0e3e 6664 333e 8cb7 933e 6133 c9bd
00000100: aae4 973e ec45 88be cc70 d8be 9000 73be
00000110: 2a00 363e 8cc4 c93e 82bf f6bc fd0f 5b3e
00000120: 068c 3ebe c9c7 d73d f084 903e 77fb 5f3e
00000130: 82db 88be 9008 96be 5bbd d13d 5ecf 593e
00000140: cd66 acbd d123 1dbe c256 2d3e d72e d43c
00000150: 06ed 8c3e 496d 87be dbec 22be 8be4 1d3e
00000160: cc59 6b3e 0aca 563e b335 10bc f6fe 6bbd
00000170: 692b 86bd 8573 6fbc 9279 e43d 97c9 863e
00000180: 4294 82be 69c9 193c 2d59 683e a8f4 e7bd
-0.16153638 0.06715381 -0.14895508 -0.28486454 0.12382852 0.37985513 -0.104875885 0.18044229
-0.23981307 -0.13804796 0.099429816 -0.24276875 0.29159713 0.16595912 -0.013193579 -0.050505478
-0.15214162 -0.28034618 0.033675913 0.36305088 0.26655185 0.33226353 0.35847068 0.3015789
0.3529858 0.056907583 -0.48185068 -0.052460607 -0.023342988 -0.12569945 -0.24200639 0.117570706
0.38098 -0.17342354 0.23081595 -0.0701994 -0.37372664 -0.27677488 -0.35347325 -0.16717768
-0.06211788 0.024041267 -0.299149 0.06951722 -0.114834376 -0.36844105 -0.29758805 0.17111582
0.23490064 0.052304942 -0.27785882 -0.00838483 0.052728716 -0.088533655 0.10851221 0.041430853
-0.35363352 -0.30557573 0.082543276 0.29810965 0.1389054 0.17518768 0.28850973 -0.09824253
0.29666644 -0.26615846 -0.42273557 -0.23730683 0.177735 0.39407766 -0.030120615 0.21392818
-0.18608102 0.10536153 0.28226423 0.2187327 -0.2672997 -0.29303408 0.10241195 0.2127051
-0.08418045 -0.15345694 0.16927627 0.025901241 0.27524585 -0.26450565 -0.15910666 0.15419213
0.22983474 0.2097551 -0.008801865 -0.057616197 -0.065512486 -0.014614944 0.11156 0.26325676
-0.25503737 0.009386399 0.22690268 -0.11325961

bias f4 [10]
00000000: b562 6fbe 4548 6d3e 7115 36be 6add 093e
00000010: bd49 9abd acfa dc3d e212 213e f664 223d
00000020: 229e d9bc 9b1f 91be
-0.23377497 0.231721 -0.17781617 0.13463369 -0.07533596 0.10789999 0.1572986 0.039647065
-0.026564661 -0.28344426

weight f4 [10, 10]
00000000: 4daf a23e 142e a63e 415b 2e3e f8b4 e5bd
00000010: 587e 813e 889e 25be 36d0 2cbd 2ab3 5f3e
00000020: f237 ac3d 14cc 9fbd 225f 953c 6844 18bd
00000030: f6a1 673e 649e c33e d527 9d3e 3173 193e
00000040: a1f4 893e 5f40 5b3e ac16 85be 873c f5bd
00000050: c275 5bbe 7949 a73e ab74 09bd f60c 823c
00000060: 690e 433d 8e64 133e a1d6 5e3e f431 053e
00000070: f925 ab3c f451 83be fe95 a23d 3ae1 71be
00000080: ef97 21bd 5568 873d 2d82 c23e 8604 0abe
00000090: 8ba9 373c 4232 5bbe 4a3f a4be 5049 623e
000000a0: ea1a 2bbd c404 9f3d 911d b43e 08a0 9abb
000000b0: 4bd2 b4bd c445 c63e 7dd4 d73d 53c8 db3d
000000c0: 0c5a 8e3d 8356 ac3e 0548 393e 4d47 dcbd
000000d0: 3130 303d 4d06 38be 365a 9c3e 2ba0 853e
000000e0: d0e2 ecbd 85fc 983e 0675 833d 42fa 7ebe
000000f0: 58b5 2fbe 742b 853e 3cf5 aa3e d008 733e
00000100: 4146 823e 0e4e 7cbd f198 bb3e 9435 8bbd
00000110: 1212 923d b5ea b13e 08cc 1d3d 407d 22be
00000120: 44a8 0c3c cc7c 21be bc7d bb3d 9039 8abe
00000130: aa03 75bd 3d9f 5b3d 7c08 25be ef47 e83d
00000140: ffeb aa3c f3e4 823e 2cab 9ebe ad2d babe
00000150: eee0 3bbe 48dc c8be 8f59 a2be 5910 693e
00000160: 2642 7bbe 6c5e dc3d c205 443d 8e53 17bd
00000170: 612e 903e b09f d03e 51f4 7ebb 710e dc3e
00000180: cbe7 863e 3a44 c33d a645 b33e 73eb 13be
0.3177437 0.3245703 0.17026998 -0.11216158 0.25291705 -0.16173756 -0.042190753 0.2184569
0.08409108 -0.07802597 0.01823384 -0.037174612 0.22620377 0.3820678 0.30694452 0.14985348
0.2694445 0.21411274 -0.2599386 -0.11974435 -0.2143164 0.32673243 -0.03355853 0.01587532
0.047621164 0.14393827 0.21761562 0.13007337 0.02089213 -0.25648463 0.07938765 -0.23621073
-0.039451536 0.06611697 0.3798994 -0.13478288 0.011209856 -0.2140589 -0.32079536 0.22098279
-0.041773714 0.07764581 0.35178807 -0.0047187842 -0.08829173 0.38725102 0.10538576 0.10731568
0.06950769 0.33659753 0.1809388 -0.10755787 0.04301471 -0.17971154 0.30537575 0.2609876
-0.115666986 0.29880157 0.06418805 -0.24900153 -0.17159021 0.26009715 0.33390224 0.2373383
0.25444224 -0.061597876 0.36640123 -0.067973286 0.07132353 0.3474938 0.038524657 -0.15868092
0.0085850395 -0.15770262 0.09154841 -0.26997042 -0.059817947 0.05361866 -0.16116518 0.11341845
0.020864485 0.255653 -0.3098997 -0.36362973 -0.18347523 -0.3923056 -0.31708953 0.22760142
-0.24536952 0.10760197 0.047857054 -0.03694492 0.28160384 0.40746832 -0.0038902948 0.42979768
0.2634872 0.095344976 0.35014075 -0.14445285

bias f4 [10]
00000000: f9a6 a93e 2a8e 34bd dccb 9bbe 1ed1 3f3d
00000010: 0134 5b3e cbe9 473e fd03 a4be 80aa 56bc
00000020: 136c d0bd 134e cabc
0.33135203 -0.04408089 -0.3042897 0.04683029 0.21406557 0.19522779 -0.32034293 -0.013102174
-0.101768635 -0.024695432

weight f4 [10, 10]
00000000: c764 8cbd 12a1 2ebe b774 773e 3f8f c33d
00000010: 1261 c2bd b5ef 2cbe db9a b0bd eb2c 82be
00000020: 6e07 5cbe 1210 cabd b4c5 be3e 5600 fabd
00000030: ad39 0a3d 278d 3fbe 55dc 0cbe f312 acbb
00000040: 1f27 92bd f0b1 473e 5231 49bd 5a7f 36be
00000050: 9419 773d 10d0 003e 92de 8e3d 73a8 4a3e
00000060: 551b adbd aa48 d1bc 5656 f83d 64fe d83e
00000070: d9cf d3bd a6c7 83bc 6c3a 82be 66f7 b13d
00000080: f336 833e 7bbb 203d b880 153e ac46 dcbd
00000090: 5f83 f8bd c71a 9ebe acd1 033e b137 663e
000000a0: d402 35be 9673 9b3c 7b07 903e fe09 8b3e
000000b0: 0818 6fbe 1cab 5ebc 8504 593e 6d4c 9b3e
000000c0: a154 9e3e c3df 803c 3a10 cfbd f63c 5e3e
000000d0: f823 07bd 33aa a6be 9fb2 193d c1aa 373e
000000e0: 041d d13d 4044 c93d 8a89 b8be 6fad a93e
000000f0: 9f80 17bc b03d 86be 91d7 87be 8736 653e
00000100: 30ca 9b3e 7b9f c33d c231 4c3e c5f5 75ba
00000110: f733 12be 0642 bcbd 6591 16be 93fa 2c3e
00000120: 1b3a 393d b61e 193e be04 a5be ff08 00be
00000130: ad4d 453e b7d6 b43b bdd8 163d 4774 f2bc
00000140: 1455 82be ebfd 84bd 56d7 483d e0d5 b3bd
00000150: 90de 9c3d 180c d7bc 1c3b 4abe ba36 c0be
00000160: ce83 8abd 83f6 5bbe 2186 b13d 9b62 8b3d
00000170: 682b 193e 6b12 4f3e db46 493e 07e5 4ebe
00000180: 25f7 553e 1010 c0be 297c 2abc 27fa c53d
-0.06855159 -0.17053631 0.24165617 0.095488064 -0.09491171 -0.16888316 -0.08623286 -0.25424895
-0.21487209 -0.098663464 0.3726021 -0.12207095 0.03374641 -0.18706189 -0.13755925 -0.0052512824
-0.07136368 0.19501472 -0.0491193 -0.17822018 0.060327128 0.1257937 0.06976046 0.19790821
-0.08452479 -0.025547344 0.12125842 0.42381585 -0.10342378 -0.01608641 -0.25435197 0.08689766
0.2562786 0.039241295 0.14599884 -0.10755667 -0.12134432 -0.30879804 0.12872952 0.22482182
-0.1767686 0.018976014 0.28130707 0.2715606 -0.23349011 -0.0135906 0.2119313 0.30331746
0.30923942 0.015731698 -0.10110517 0.21702942 -0.032993287 -0.32551727 0.037523862 0.17936231
0.102106124 0.09827471 -0.36042434 0.33140132 -0.009246974 -0.2621894 -0.26531652 0.22384082
0.30427694 0.09551903 0.19940856 -0.0009382631 -0.14277636 -0.091922805 -0.14703901 0.16892461
0.04522143 0.14953122 -0.3223018 -0.12503432 0.19267912 0.00551876 0.03682779 -0.029596461
-0.25455534 -0.064937435 0.049033485 -0.08781028 0.07659638 -0.026250884 -0.19749111 -0.37541753
-0.06763421 -0.21480756 0.08668161 0.06805917 0.14957964 0.2022187 0.19655935 -0.20204554
0.2089506 -0.37512255 -0.010405579 0.096668534

bias f4 [10]
00000000: 0027 73bd 7a6a 4fbe 2794 fb3e 972b 2fbd
00000010: 94b6 3d3e d333 75be 0c05 9d3d 8016 20be
00000020: c692 be3d e202 f1bd
-0.059363365 -0.20255461 0.4913647 -0.04276618 0.1852668 -0.2394555 0.07666978 -0.15633583
0.093053386 -0.11768128

weight f4 [10, 10]
00000000: f6c9 4c3e a666 8a3d 7000 bb3d 251d 95bc
00000010: f0ab c1bc 5d7c 6fbd c9c6 b1be 760a 143e
00000020: 3188 ed3d d738 90be 4147 3d3e f252 d0bd
00000030: 8c4c 87be 4a29 373e b220 0dbc d424 283e
00000040: 0a7e 173e 031f 64be 1ed9 883d 4f5b b63e
00000050: 2ad1 3d3e 4bc3 3fbd d2a5 92be 7829 ab3e
00000060: 6907 92be 8405 6bbe 5ebf 373e 659d 8e3e
00000070: fb1f 9cbe 97da 4cbe 8d38 5dbe ad94 76be
00000080: d697 e7be a703 bf3c ea6d 80ba a95f 68be
00000090: 7db6 2f3a 318e 283d 3b71 0c3e fd09 373e
000000a0: ee38 9bbe fc77 a9bd 0c86 f83c 2868 15be
000000b0: 4a34 753e 9ab8 7f3e 89de dbbd 83c6 88be
000000c0: ed9e 413e 8f92 66be 6ad0 a6bd aa72 02be
000000d0: 7f07 7abd ca1d c43e 65ff a6be daf8 493e
000000e0: 1707 00bd abce 72be 7121 073e e2d6 82bd
000000f0: a46a 8d3e bb6d 093e 7345 bb3c 8ff1 1abc
00000100: ff9d 2f3c 3af3 0c3e e0f3 e0bb 7d42 513e
00000110: 96af 56be bbd1 e8bc 396a a1bd 5e66 b4be
00000120: 72c3 9b3d f2b2 5dbe e6ef 28bd 5625 26be
00000130: 6297 ae3e a84e 493e b79a 6b3d 8052 a33d
00000140: 1bbe 983e 1a4e 003e fcb8 94be 1000 163e
00000150: 68cc c7bd ebe7 993e e69f f2bd 8436 7f3e
00000160: 0534 e93d d30a b0bd 9282 91be 8ff4 0fbe
00000170: 3ad0 2fbe 4e07 b33e 44bb 24bd e471 8abd
00000180: 487a c0bc 98e1 35be 49e5 ac3d 9a36 0e3e
0.19998917 0.0675786 0.09130943 -0.018202374 -0.023641557 -0.05846821 -0.34721974 0.14457116
0.11598242 -0.28168365 0.18484212 -0.101720706 -0.26425588 0.17886844 -0.008613752 0.16420299
0.14794174 -0.22277455 0.06682037 0.35616538 0.18536821 -0.046817105 -0.28642136 0.33430076
-0.28521279 -0.22951323 0.17944095 0.27854457 -0.3049315 -0.2000526 -0.21603604 -0.24080153
-0.4523303 0.023317171 -0.0009798382 -0.22692741 0.0006702913 0.04115123 0.13715069 0.17874904
-0.3031687 -0.08274838 0.030337356 -0.14590514 0.23945728 0.24972764 -0.107358046 -0.26713952
0.18908282 -0.22516845 -0.081452206 -0.12739053 -0.061042305 0.38303977 -0.32616726 0.19723836
-0.03125676 -0.2371165 0.1319635 -0.06388642 0.27620423 0.13420765 0.022860264 -0.009457006
0.010718822 0.13764659 -0.0068650097 0.2043552 -0.20965418 -0.02842032 -0.078815885 -0.3523435
0.076056376 -0.21650293 -0.04124441 -0.1622518 0.3409987 0.19658911 0.057520594 0.0797472
0.2983254 0.12529793 -0.29047382 0.14648461 -0.09755784 0.30059752 -0.118469045 0.2492314
0.11386875 -0.085958146 -0.2841993 -0.14058135 -0.17169276 0.3496651 -0.040217653 -0.06760004
-0.023495808 -0.17761838 0.0844217 0.13888016

bias f4 [10]
00000000: 91bd 32bd dd02 72be c711 4f3d 81e6 ed3d
00000010: 3f7e b13e 3968 cd3d bb39 f43d e253 a23e
00000020: 0ede a2bd fc6c aabd
-0.043637816 -0.23633905 0.050554063 0.11616231 0.3466663 0.100296445 0.11925074 0.31704623
-0.0795251 -0.08321568

weight f4 [10, 10]
00000000: a927 96be 49b2 b73d 732c 17be f084 cebd
00000010: e34b 67be 62ed 923d 447c d5bd 51ab a63e
00000020: e6fd 3abd 6b00 0c3e b9db 73bd 0e96 8b3e
00000030: dadf 333d 947a 643e f87e d1bd 4442 9d3e
00000040: d48a 47be 7720 6f3e 96da 33be 19fb 993e
00000050: 4324 c53b 59b3 a13e acd2 53be 1fb0 14be
00000060: 8807 943d 8bb5 933e b98f 713e 09f4 2c3e
00000070: 6f35 2f3e ac52 a33e 3752 fcbc 01ac 13be
00000080: 27ee 17be 8f3a b4be 3bf4 a33b 9593 2fbe
00000090: 3cb0 e0bd 2f26 5cbd 9b91 9dbe 1395 c8bd
000000a0: 889d cb3a 9aff 46be ffb5 3cbe 7863 923d
000000b0: 5145 303c b87e a3bc ce27 753b 6dd9 ee3d
000000c0: 046f d73d 7590 84bd b5b7 23be 358d 863e
000000d0: 2ee2 923e 81e6 4abe 628b ab3d 6deb 443e
000000e0: 57f0 da3d 0df6 143d 2f32 1c3d 42a9 6bbe
000000f0: d45e 2e3e c165 e0bd 2176 8fbe 721b 1cbe
00000100: 94fb 1a3e 2ed1 03be 5007 1c3e d1cf d5bd
00000110: 8b32 243e a7fa 05be 9ce7 46be 3908 ff3d
00000120: 4571 87bb 6fa5 6e3e 2e9a d4bd 4057 84bd
00000130: eadb 8d3d aedd c33e 8573 423d 9341 05bc
00000140: d7da e03d 48f1 b4be 2996 e63d 3bac 5fbe
00000150: 4633 2bbd 4617 9cbe bed2 0f3e 7289 483e
00000160: 07cc c2be 29e9 56be 9300 24be f5eb 5c3e
00000170: edd7 3e3e 7f0e 493e cd56 b6be 393f b43d
00000180: c656 0c3d 1084 84be 96d5 6e3e 7a97 933d
-0.29327133 0.08969552 -0.1476305 -0.100839496 -0.22587542 0.071741834 -0.104240924 0.3255258
-0.045652293 0.13672034 -0.059535716 0.2726292 0.043914653 0.22312385 -0.102292955 0.3071462
-0.19486552 0.23352228 -0.17563853 0.30074385 0.0060162856 0.31582144 -0.20685834 -0.1452031
0.07227999 0.28849444 0.23589982 0.16889967 0.17110227 0.3189901 -0.030800922 -0.14421083
-0.14836942 -0.35200927 0.00500348 -0.17146142 -0.10971114 -0.053747352 -0.3077515 -0.09794059
0.0015534619 -0.19433442 -0.18428801 0.071478784 0.010758714 -0.019957885 0.0037407759 0.116625644
0.105192214 -0.064728655 -0.15988047 0.26279607 0.28688186 -0.19814493 0.083761945 0.19230433
0.106903724 0.036367465 0.038133796 -0.23013785 0.17028362 -0.10956908 -0.28019813 -0.15244845
0.15135032 -0.12872764 0.15237164 -0.104400285 0.16034906 -0.13083898 -0.1942429 0.1245274
-0.004133376 0.23305295 -0.1038097 -0.06461954 0.06926711 0.38255066 0.04747345 -0.00813331
0.109792404 -0.35340333 0.112591095 -0.21843044 -0.041796945 -0.30486506 0.14045236 0.19583681
-0.38046286 -0.20987381 -0.16015844 0.21574385 0.18637057 0.19634436 -0.356131 0.08801121
0.03426244 -0.25882006 0.23323664 0.07206626

bias f4 [10]
00000000: f6a5 b53e 8b59 60be c192 12be fc89 68bd
00000010: 52c0 94be 8142 22be 0e1b 86be 1841 e23e
00000020: 6ff7 483e 6128 e7bc
0.3547818 -0.21909158 -0.14313795 -0.056772217 -0.2905298 -0.15845682 -0.26192516 0.44190288
0.19625638 -0.028217496

weight f4 [10, 10]
00000000: a8fd 5dbc f505 1d3e 0d67 83be 811f a33e
00000010: a4a3 9dbe 9888 d73d a9eb 3b3d 7288 09bc
00000020: 442f 923e c55e 0f3e 090f f3bd 834f 14bc
00000030: 974b 383d 85d9 4b3e f316 c53d db63 59bc
00000040: 5658 81be 9ff0 b83e add0 cb3e e4ed 903c
00000050: 1aa1 cb3d a8bd 2ebe 667d 91bd 1db7 d0bc
00000060: 5fb6 93bd a7bf 963d 00bf d23d b8a6 9a3e
00000070: 7e5d fa3d 98c5 ba3c 15f0 3bbe 1f16 f73d
00000080: 1e22 9f3e 46cc b7bd b874 29bd d250 b0bd
00000090: 7bec 66bd f7d5 8cbe 4fb2 3a3d 66e0 9e3d
000000a0: c4c7 39be f48f 6e3e 50e2 ff3d b84f bbbe
000000b0: 6232 3abe dc78 a5be 7472 08be c324 47be
000000c0: ee25 823c 1525 16bd 70b7 b33d 4265 bebd
000000d0: 5a3c ae3d 37fc 993e a62b 4abe f3b6 eabd
000000e0: 1286 323e 9b9d 6b3d c4bb cf3d 958b a03c
000000f0: 40b4 f43d 8f84 433e 5393 47be 97b0 233c
00000100: 60bf be3e ef44 19be 1f11 95bc 73f1 54bd
00000110: 2d2f 25bd fb36 ad3e 58e3 d1be 6b8b fe3d
00000120: 61e5 c5be 8577 3a3d 6315 a7bd c78a ac3d
00000130: e2a6 653b 9ccb 2a3d a8b4 613d 5bf5 3fbe
00000140: f386 5abe 1aa0 97be 1bed 913e a601 8cbe
00000150: 8270 67be 8174 313e 1ab6 0abe c30a 6ebd
00000160: 79b2 953e 4556 053e 2782 243c 438d 413c
00000170: 7e1e 403e 3c56 623d 0ee2 8fbe fdc3 1e3e
00000180: 565d 27be 7daa a9bc 04bd d9bc fadc 2fbe
-0.013549246 0.15334304 -0.2566456 0.31859973 -0.3078891 0.105241 0.04587904 -0.0083943475
0.28551686 0.14000995 -0.11868102 -0.00905216 0.044993963 0.19907196 0.09623518 -0.013268436
-0.25262707 0.3612108 0.39807644 0.01769156 0.09942837 -0.17064536 -0.07103996 -0.02547794
-0.07212519 0.073607735 0.102903366 0.3020532 0.122248635 0.022799298 -0.18353303 0.12064766
0.31080717 -0.08974509 -0.041371077 -0.08609165 -0.05637787 -0.27506992 0.045580205 0.07757644
-0.18142611 0.23297101 0.124943376 -0.36584258 -0.18183282 -0.3231877 -0.1332491 -0.19447617
0.015887227 -0.036656458 0.08775222 -0.09296657 0.08507605 0.30075237 -0.19743213 -0.11460676
0.17433956 0.05752335 0.10143235 0.019597808 0.119484425 0.19093536 -0.19489793 0.009990833
0.37255383 -0.14967702 -0.01819664 -0.051988076 -0.040328193 0.3383101 -0.40993762 0.124289356
-0.38651565 0.04552414 -0.08158376 0.08424907 0.0035042097 0.041698083 0.055103928 -0.1874594
-0.21340542 -0.29614335 0.2850121 -0.27345008 -0.22601512 0.17329599 -0.13546029 -0.058115732
0.29237726 0.1302119 0.010040796 0.011813465 0.18761632 0.05525802 -0.28102154 0.15504451
-0.16344199 -0.020711178 -0.026579387 -0.1717414

bias f4 [10]
00000000: 9757 cfbc b4f0 703d 6310 703e 5232 b9be
00000010: bbc1 833d 7309 413e 295c 94bd c40a 343e
00000020: b101 51bc e939 95be
-0.02531032 0.058823302 0.23443751 -0.36171204 0.064334355 0.18851261 -0.07244141 0.17582232
-0.012756751 -0.29145744

weight f4 [10, 10]
00000000: 1024 85be f5b2 5fbe 66eb b8be 9eaf 8c3e
00000010: 01c6 95be 7287 83be 1137 ac3e 9620 c4bd
00000020: da1c bebd 2bc6 533e 8835 04be 592d 6a3e
00000030: 8966 a73e e14b dbbc 0eec 61be 96c0 983e
00000040: e046 fabc 8922 c0bd cf1d 4f3e 89b8 50bc
00000050: 86cc f4be 9054 8f3e aff2 453e 697f c83d
00000060: 2fce 90be e368 a03e 1d8c 2fbe 4d88 603c
00000070: 5ac3 85bd e317 2f3e 74d1 b0be 18b3 afbe
00000080: cce1 98be e16f ba3e 113f 633d a486 60be
00000090: a1f9 8c3e c42c 223e 4903 fb3d 3843 343e
000000a0: 38ea e23d 8caf 29be a971 4f3e 6895 81bd
000000b0: 00cd a9be 08c2 1c3c 4b86 603d be6d b7be
000000c0: fb38 86be 5f68 c0bd affd 1bbd 68f1 903e
000000d0: 8a4d 103e 720e 4cbe d293 1a3e 15d6 38be
000000e0: 1dfe 56be f17a 453d 4c64 a0bd 1bd4 cabc
000000f0: 0f6b 973c 6c1a 22bd 7eaa 953e c459 16be
00000100: 7bda 59bd 704c 51bc 28c4 4a3e 1f33 46be
00000110: ffce a1bd 1d7f 163e 92d3 c03d f7c2 c1bd
00000120: 2e3e 9d3e dfcc babd 4dd6 2a3e 7822 fabd
00000130: 9b40 86bc c1bd b43d 6c8e 95be 61d8 a1be
00000140: 35f3 01bd 89e8 02be 5676 b6bd d98f fc3d
00000150: 2846 823e b0ba 923d ebe9 b13e 6816 3b3e
00000160: 53a6 763c 3ab3 73bd 9b39 563e 7c47 3f3d
00000170: 7dd3 073e 8b8f 163d cf21 1d3d f58f b1be
00000180: 637e 5b3e c045 563d b879 82be 0c08 73bd
-0.26004076 -0.2184561 -0.36117095 0.27477735 -0.29252627 -0.25689274 0.33635762 -0.09576528
-0.09282847 0.20681064 -0.12911046 0.22868861 0.32695416 -0.02676958 -0.22062704 0.2983443
-0.030551374 -0.09381587 0.20226215 -0.012739309 -0.4781229 0.27994204 0.19330858 0.097899266
-0.28282306 0.31330022 -0.17143293 0.013704372 -0.06531401 0.17098956 -0.345348 -0.34316325
-0.2985977 0.36413482 0.055480067 -0.21926361 0.27534202 0.15837389 0.12256486 0.17603767
0.1107983 -0.16570872 0.20258202 -0.06327325 -0.33164215 0.009567745 0.05481557 -0.35825914
-0.26215348 -0.09394907 -0.03808373 0.28309178 0.14092079 -0.19927385 0.15095451 -0.18050416
-0.20995374 0.04821295 -0.0783163 -0.024759343 0.018483667 -0.03957598 0.29231638 -0.1468268
-0.053186875 -0.012774572 0.1980139 -0.19355439 -0.079008095 0.14696927 0.09415354 -0.09461015
0.30711502 -0.09121107 0.16683312 -0.12213606 -0.016388228 0.08825255 -0.29210222 -0.31610397
-0.03172608 -0.12784018 -0.089092895 0.12332124 0.2544415 0.07164514 0.34748778 0.18270266
0.015054303 -0.059497096 0.20920412 0.046699032 0.1326427 0.036757987 0.03836232 -0.34680143
0.21434931 0.052312613 -0.2548349 -0.059333846

bias f4 [10]
00000000: 25fc b5be 626a af3e be2b 80be 0b03 223e
00000010: ca02 903d 4901 323e c34c 5a3e d2c3 963e
00000020: 0419 3bbe 5aca 00be
-0.35543934 0.3426085 -0.25033373 0.15821473 0.07031782 0.17383303 0.21318345 0.29446274
-0.18271261 -0.12577191

weight f4 [10, 10]
00000000: 8b41 383e f883 a23e f93e a5be 9e2e b3bd
00000010: 9892 323e c737 223e 5ebe 5a3e 6d7e 74be
00000020: 0fee 4ebe b5c9 623e 04ad f63d fb7e afbd
00000030: d6fb e43c 0342 823e 84f4 933c 376f 5c3d
00000040: 7409 183e 5dd4 e93c cdbd 533e 852f 073e
00000050: fa69 1dbe 4a5f 773d 6030 cd3d 56ee 0b3d
00000060: 24a4 8d3d 1a95 2abd d2d1 2d3c 5e13 c7bd
00000070: 06bb c8bd d3fb 19be 74ce 85be 6036 ef3a
00000080: b01f b0be fda9 8c3b a364 53bd 1d1d 193e
00000090: 4a71 503e dcf4 fc3d 413f 773e d9c4 6e3b
000000a0: f505 683e 11b2 8abe 58a0 2dbe eab9 493e
000000b0: 584b 993e 7fff cabe ae7a 00be 4d69 fdbd
000000c0: b75a 84bc 3058 ae3e d6a4 31be 2c20 a5be
000000d0: cfc0 c2be 70e9 01be 77a2 fdbd bf8d 9bbe
000000e0: c1e0 553d e775 45bd f4c8 9a3e 1565 10be
000000f0: b442 db3e 7473 a7be 8063 8d3d b147 a03e
00000100: 3706 85bc d311 38be 41aa 6fbe abf7 723d
00000110: 1e78 c03e bd45 853e cdde dbbd 362e 873e
00000120: b9f6 05bd 25d9 4ebe d4fd 5b3c ed83 ee3d
00000130: 6b7d a13e 00bf 753e 899c e1bc c55f e6bd
00000140: 8384 25bd 7bf4 c3be d2b6 e73d 3ad9 a4be
00000150: eda1 a3be ae36 6d3e 68fc 1b3e 7d6c 093c
00000160: ebe7 b5be 0e51 353d cf10 a1bd 300b 9cbc
00000170: 9ee0 433a 7c98 893e 9c7e d5bd 6d0d a4be
00000180: 7039 593e 7a29 d1be ad0b 0a3e bd82 523d
0.17993753 0.3174131 -0.32274607 -0.08749126 0.17438734 0.1584159 0.21361682 -0.23876353
-0.20208 0.22147258 0.12044719 -0.085691415 0.027952116 0.25440988 0.01806093 0.053817
0.14847356 0.028543646 0.20677872 0.13201721 -0.15372458 0.06039361 0.100189924 0.03416284
0.06916073 -0.0416461 0.010609107 -0.09720491 -0.09801297 -0.1503747 -0.26134074 0.0018250458
-0.34399176 0.004292725 -0.051609647 0.14952512 0.20355716 0.12351391 0.24145223 0.0036433248
0.22658522 -0.2708898 -0.16955698 0.19699827 0.29940295 -0.39648053 -0.12546799 -0.123736
-0.016156537 0.34051657 -0.17348036 -0.32251108 -0.38037726 -0.12686706 -0.12384503 -0.3038158
0.052216295 -0.048208144 0.3023144 -0.1410106 0.42824328 -0.3270527 0.06903744 0.31304696
-0.016238315 -0.1797555 -0.2340479 0.059318226 0.37591642 0.2602977 -0.10735855 0.26402444
-0.032705996 -0.20200022 0.013427217 0.116462566 0.31541 0.23998642 -0.027540462 -0.11248735
-0.040409576 -0.3827246 0.11314167 -0.3219698 -0.31959477 0.2316539 0.15233004 0.008387682
-0.35528502 0.044266753 -0.07864534 -0.019048303 0.000747213 0.2687415 -0.104245394 -0.32041493
0.21213317 -0.40851957 0.13481016 0.051394213

bias f4 [10]
00000000: 2d8a 113c 462f c7be 1f76 85be 74a6 803d
00000010: 3665 7cbe ff97 843e fb71 0f3e 5570 d83e
00000020: 1737 6f3e 7c2a b2be
0.008883041 -0.38903254 -0.26066682 0.062817484 -0.24647984 0.25897214 0.14008324 0.42273203
0.23360859 -0.34798038

weight f4 [10, 10]
00000000: 91cc ee3d 785c 42be 99c7 803e 03ea 25bc
00000010: 2526 b53e 3fc8 abbe 0a0d 63be c05e c9be
00000020: f360 7bbd d083 13be 269a 8dbe 270d 7ebe
00000030: 6b25 acbd 1ad8 9c3d 5fd1 bf3c 8e3c 0fbd
00000040: 0e17 2a3e 2de1 2b3e 0e74 e53b 0134 24be
00000050: 9799 99be c074 1bbe ce5b 8abe 251c 80be
00000060: de81 803e 1b53 37be 18a1 a63e 7d90 fd3d
00000070: 8efa c73d bb6e 0a3d c922 1e3e 662d 823e
00000080: 32bd 4c3e 4e3c 62be 4b0b a83e c62b 7f3d
00000090: 037b 0a3d 5a92 61be cbb6 34be 8075 ca3d
000000a0: d7fe 88be 9144 94be 2858 de3c 38a2 8abe
000000b0: f3f2 23bd fa5b 02be d900 963d a00a 89be
000000c0: 5309 fa3d ed1b 893d dbc9 513e 070d a73e
000000d0: bdae 973d b949 12be 656b 433d 7d7b b1be
000000e0: e098 133e 2450 5ebe ec35 85be 2663 b83e
000000f0: ed09 4d3e 1bed 7bbd f497 39be a7b2 5dbe
00000100: f417 1abd 76e1 39be 0fe3 653c e7c0 8c3d
00000110: b8e6 ccbe 639d 7c3e d8e8 7c3e 8ff8 613e
00000120: 49c8 9a3e 4b83 f13d 4f8a 8abd b47e d0bd
00000130: db21 353e f1e9 303e a406 5dbd 3f5f 4ebe
00000140: 5eeb 223e 306e d33d f10e 95bd 1895 b73b
00000150: ed5d 733e 4c4a 08be 26d9 043e b463 023d
00000160: 9be2 723e 9776 a23d f921 56bd bd56 263d
00000170: 5ed4 41be 2482 b93e c299 99be 7d25 bdbd
00000180: 1447 85be 1077 1e3e 6d28 243d 19cd 74be
0.11660112 -0.18980587 0.2515228 -0.0101265935 0.35380664 -0.33551213 -0.22172943 -0.393301
-0.061371755 -0.14405751 -0.27656668 -0.24809705 -0.084055744 0.076584056 0.023415266 -0.03496986
0.16610357 0.16785116 0.00700236 -0.16035463 -0.29999992 -0.15181255 -0.27023166 -0.25021473
0.2509908 -0.17902796 0.3254478 0.123810746 0.097645864 0.033797007 0.15442957 0.2542526
0.19994047 -0.22093317 0.32821116 0.062297605 0.03380872 -0.22028485 -0.17647855 0.098856926
-0.26756927 -0.28958562 0.027141646 -0.27076888 -0.040026616 -0.12730399 0.073243804 -0.2676592
0.1220881 0.066947795 0.20487158 0.32627127 0.074063756 -0.14285935 0.04770984 -0.34664527
0.14413786 -0.21710259 -0.26017702 0.36013144 0.20023318 -0.06150542 -0.18124372 -0.21650182
-0.0376205 -0.18152413 0.014031186 0.06872731 -0.40019774 0.24669413 0.24698198 0.22067474
0.3023093 0.1179262 -0.067646615 -0.10180417 0.17688696 0.17276742 -0.05396141 -0.20153521
0.15910098 0.10323751 -0.072782405 0.00560249 0.23766299 -0.13309592 0.1297346 0.031833366
0.23719256 0.079327755 -0.052278493 0.040610064 -0.18928668 0.36232102 -0.3000012 -0.09235666
-0.2603079 0.15475106 0.040077616 -0.23906364

bias f4 [10]
00000000: a415 b9be 888b 143d 91fa 4d3e fa93 cabe
00000010: c0d4 de3d ebff d6be cdf0 bfbd 702a 703e
00000020: d62e 8f3e 6a22 903e
-0.36149323 0.03626588 0.20115115 -0.39566022 0.108804226 -0.41992125 -0.09372101 0.23453689
0.2796542 0.28151256

weight f4 [10, 10]
00000000: ba54 93be dd99 a13e 0f14 24be 3673 a7be
00000010: b45b 123e 1720 8bbe 7483 0b3e 9967 f7bd
00000020: 1443 8abe fb20 39be c778 09be 5c95 7d3e
00000030: 5234 94bd 76fc 623e ddab a7be 33a0 c2bd
00000040: 6a79 9dbe a110 45be e070 f9bd 93a3 1dbd
00000050: e5d3 7ebc 799f 05be 6927 60be 6260 36bc
00000060: efe8 7f3e b6c4 fcbd 53e2 bc3c 8096 aabe
00000070: e37b 52be 47ab 513e 5ca2 7ebe 6d0e 613e
00000080: 5504 84be 4f22 663e de83 98bb e0db c5be
00000090: c26b 2abe 79f5 733b d3e7 793e 2120 533e
000000a0: 3265 3d3e 8ebd 70be afe8 7e3e 8cc8 cdbd
000000b0: 3570 5dbe 7d96 8d3e d09b 80bd 55f9 7dbe
000000c0: 61bf 8a3e 5cf6 543d 1616 cd3d 6d9a cebd
000000d0: f7f9 dcbd 3216 4dbe 846f 0bbe b020 be3e
000000e0: 46b6 cc3d 6cf5 403e 37fa 5fbd daff 1dbe
000000f0: 054e 5b3e e252 3bbe 1840 e43d ed5b 82be
00000100: 3583 7d3e d339 163e e9f0 e9bc 1b63 4cbe
00000110: 27e9 8f3e 84ee a4bd f4e4 063e 2b15 cd3d
00000120: d720 9b3e 95f6 aa3e e53b 1fbe d10d 183d
00000130: 5467 263e ebeb 40be e637 75ba 182d 9bbd
00000140: 47ad e6bb af1c 51be 7a39 9c3e 82ad ab3e
00000150: 359b a7bd d73d 403d cf3d 963e 4937 4ebc
00000160: 865b 463d 2cfd b0bd 8fbb 90be 1400 44bd
00000170: 76c1 563e fe5e 14be 020e b33e 462a 69be
00000180: bd9c d03d a0c3 05bd ffe3 6a3e d72c 093d
-0.2877558 0.315627 -0.16023277 -0.32705086 0.14292794 -0.2717292 0.13624364 -0.120803066
-0.27004302 -0.18078987 -0.13424979 0.24764007 -0.07236542 0.22166619 -0.3274831 -0.09503212
-0.30756694 -0.19244625 -0.12179732 -0.038486075 -0.015553449 -0.13049115 -0.21890034 -0.011131378
0.24991201 -0.12342207 0.023057139 -0.33317947 -0.20555072 0.20475493 -0.24866623 0.21978159
-0.25784555 0.22474025 -0.0046543917 -0.38644314 -0.16642669 0.003722517 0.2440484 0.20617725
0.18495634 -0.2350981 0.24893449 -0.10048017 -0.21624835 0.27653876 -0.06279719 -0.24802144
0.27099136 0.05199276 0.10013978 -0.10088048 -0.107898645 -0.20027998 -0.13616759 0.37134314
0.099957034 0.18843621 -0.054681983 -0.15429631 0.21416481 -0.18293336 0.111450374 -0.2546076
0.24757083 0.14670496 -0.028557258 -0.1995968 0.2810757 -0.08053306 0.13173276 0.10013803
0.30298492 0.33391252 -0.15550192 0.03712255 0.16250354 -0.18839996 -0.0009354338 -0.0757696
-0.0070396992 -0.20421098 0.305126 0.33530813 -0.081839 0.046933975 0.2934403 -0.012586423
0.048427127 -0.08642039 -0.28268096 -0.047851637 0.20972237 -0.14489362 0.34971625 -0.22770032
0.101861455 -0.032657266 0.22938536 0.03349003

bias f4 [10]
00000000: 7bf2 0d3d 5d58 20bd 21ea ea3d e6a6 7a3e
00000010: 5f2e 2b3e 4239 aabe 933d 0c3e b428 073e
00000020: fbd0 283e dc0d c33e
0.034655076 -0.03914677 0.11470438 0.24477729 0.16716908 -0.3324681 0.13695364 0.13199121
0.1648597 0.3809651

weight f4 [10, 10]
00000000: 7555 98be 708c 2bbe a9d8 293e be24 24be
00000010: 50c4 3bbe 564d 583e b13a 32be c32b 32be
00000020: 4293 cfbd 40ff 3c3e 1fe4 5cbd 8c1c 803e
00000030: 50c3 083e 3064 36bd c131 3bbe 1112 2abe
00000040: 121e 66bd 7b36 92be fe9a 483d a756 84be
00000050: a5c2 833e 6400 233c f493 953c 52eb 9fbe
00000060: cfbc 483d d32b 39be 2ed1 8f3e d2d8 713b
00000070: 95bc 5d3e 8496 81be d4ff 22bd 3e1f 15be
00000080: 40be ea3d d449 1f3e af6c 36be 0994 83be
00000090: 73c1 c0bd 3372 49be d2b9 babe 52b9 303d
000000a0: 48b5 82be 8ac0 9d3d 8472 6f3e 17b4 cfbd
000000b0: 7f96 893e 6db0 9e3e b6ed c0bd f6ed fd3d
000000c0: a99a d93c 2527 9cbd 8cab 03bd e73d 013e
000000d0: 63c7 a2be b6c9 c0be 3b35 a13e c0cf 8a3e
000000e0: 8e1a 943e a5f5 9d3e 2af9 443e 080b 103e
000000f0: cfba 94be 4eeb 71be 9bb9 243e dbf1 75be
00000100: f312 75be 3855 24be d92f 473e 349a ef3c
00000110: 3dd9 f03d 12e7 57bd 5a7f c73d 31b4 9ebe
00000120: 7165 f3bd 86f7 f9bd 0a67 8a3e 4e79 2ebd
00000130: d2e6 393e a9fe 21be dbef 413d 1cb6 c13e
00000140: 4a50 3d3e 56a4 82be db15 69be a719 40be
00000150: 6a02 99bd b07b 8abd 5a37 35bd d9ce 023e
00000160: 231e ae3d a816 1cbc b509 333e 6af6 46be
00000170: 7df0 f03c ac1f 18be 8753 ed3c 5dff 5cbe
00000180: a935 0ebe d439 54be a1c6 92bd 8f99 7abe
-0.297527 -0.16752791 0.16586556 -0.16029641 -0.18336606 0.21123251 -0.17405201 -0.17399506
-0.10135509 0.18456745 -0.05392849 0.2502178 0.13355756 -0.04452914 -0.18280698 -0.16608454
-0.05618102 -0.2855719 0.048975937 -0.2584736 0.2573444 0.009948824 0.018259026 -0.31234223
0.049008187 -0.18083124 0.2808928 0.0036902917 0.2165397 -0.25310147 -0.039794758 -0.14562699
0.114620686 0.15555507 -0.17814897 -0.2569888 -0.094118975 -0.1967247 -0.36469895 0.043145485
-0.25528932 0.077027395 0.23383528 -0.10141771 0.26872632 0.30993977 -0.0942034 0.12398903
0.026563006 -0.07624654 -0.03214602 0.1262127 -0.31792745 -0.37653893 0.31485924 0.27111626
0.2892651 0.30851474 0.19235674 0.14066708 -0.29048774 -0.23624918 0.16086428 -0.24018042
-0.2393301 -0.16048133 0.19451846 0.029248334 0.11760185 -0.0527106 0.09741087 -0.3099685
-0.11884583 -0.122054145 0.27031738 -0.042596154 0.18154457 -0.15819801 0.047347885 0.3783425
0.18487659 -0.25516003 -0.22762243 -0.18759786 -0.074711636 -0.06761873 -0.04424224 0.12774219
0.08501842 -0.009526886 0.17484172 -0.19429937 0.029411549 -0.14855832 0.028970493 -0.21581788
-0.13887657 -0.20725185 -0.07166792 -0.2447264

bias f4 [10]
00000000: 7a2e 5ebe a55b 3f3d ef38 813e edd0 493d
00000010: 537b febd 05d6 cf3c c704 be3c 57e9 edbc
00000020: b9a0 953e ec38 a4be
-0.21697417 0.04671826 0.2523875 0.049271513 -0.12425866 0.025370607 0.023195637 -0.02904193
0.29224184 -0.32074678

weight f4 [10, 10]
00000000: 9a57 5f3e 2583 c63d 04e6 f4bd 65d2 a0bd
00000010: a2bc 323e c214 d0bd 08c1 223e 402a 153e
00000020: 61a1 a93d 77cf 8c3e a8a2 69bd 0945 893d
00000030: 2fd2 13bc 463e 98be 8b43 56be eeaa 8ebe
00000040: 4ecd 5e3a 0fe2 dabe 972c 6abe 888c 9e3e
00000050: 112c d93d 77dd edbc 6766 0fbc 2ef8 28be
00000060: 7a7d 19be 25db 08be 93bd 26be 091a ef3c
00000070: 1bb3 83bd 02bd 1bbe cbe0 953e 1ccf 253e
00000080: a65e 083e 4a40 29be cfa4 03be 9c94 e83c
00000090: 428b 8d3e 3c28 803e e0b1 653d 3960 5bbe
000000a0: 52ec 93bd 53f3 863e 7b5a 8a3e 00d3 683e
000000b0: 52de 093e 7977 b0be 4aa2 0bbe ead8 b8bd
000000c0: 7eba a5be 2593 2b3e e59a c93d dd5d 6b3e
000000d0: be62 d13d 55ce b4bd 3436 883e 9aaa 8e3e
000000e0: fb94 733e 3d84 48bd 911f 88be c49c 9a3c
000000f0: e271 89be 6682 b53e 616f e63d 9233 1abd
00000100: e627 313d c585 9f3e f9c2 26bc 6075 acbe
00000110: 56ff d7bd 945b 863e dbc2 4f3e dcdb d83d
00000120: d600 6dbe 26b6 03be 6faa a43e 32b7 0a3e
00000130: 4f59 d3bd 1a51 a23d 11f5 6a3d d438 8a3d
00000140: 37e6 ab3e 2ec5 a83d 1561 8ebe 8be1 133e
00000150: 96eb c43d 9e90 3ebe 1d27 033e f7f6 793e
00000160: 514a 853e 4c48 05be b93e d4bd c52a 113d
00000170: 5f24 223e ad7e 3e3e 95fc cbbd 1034 46be
00000180: 285f 63be c71c c4bd f30e 9a3e c515 88bd
0.21810761 0.096929826 -0.119579345 -0.078526296 0.1745477 -0.10160209 0.15893948 0.14566898
0.08282734 0.27502033 -0.057039887 0.067026205 -0.00902228 -0.2973501 -0.20924203 -0.27864784
0.0008499221 -0.42750594 -0.22868572 0.30966592 0.10604108 -0.029036267 -0.008752442 -0.16500923
-0.14989272 -0.13364847 -0.16283254 0.02918722 -0.06430646 -0.1520882 0.29273066 0.16192287
0.13317356 -0.1652843 -0.12855838 0.028391175 0.27645308 0.25030696 0.056077838 -0.21423425
-0.07222809 0.26357517 0.27022156 0.2273674 0.13463715 -0.3446615 -0.13636127 -0.09025748
-0.32368845 0.1675535 0.09843997 0.22985025 0.10223912 -0.08828417 0.26603854 0.27864534
0.237873 -0.048954237 -0.26586583 0.01887358 -0.26844698 0.3545105 0.112517126 -0.037646838
0.04325094 0.31156746 -0.010178321 -0.336833 -0.10546748 0.26241744 0.20289175 0.1058881
-0.2314485 -0.12862453 0.3216128 0.13546446 -0.10319769 0.07925625 0.05736262 0.0674912
0.33574077 0.08240734 -0.27808443 0.14441507 0.09615247 -0.18609855 0.1280789 0.24410616
0.2603326 -0.1301586 -0.10363526 0.03544118 0.15834187 0.1860301 -0.099602856 -0.19355798
-0.22204268 -0.09575801 0.3008953 -0.06644777

bias f4 [10]
00000000: f8be 4dbe a34f ddbe 214a 353e bc5e 793e
00000010: 4a00 633d d135 5bbe b022 ce3d f090 8fbe
00000020: 6cf4 ad3d aac3 dcbd
-0.2009238 -0.4322482 0.17704059 0.24352545 0.055420198 -0.21407248 0.1006521 -0.28040266
0.084938854 -0.107795075

weight f4 [10, 10]
00000000: e725 17be ce9e e03d 928a 393e 0bbb 103e
00000010: 580f c3bd b018 0dbe a851 aebd 5d3c 46be
00000020: c328 0b3e 9ad4 923e 9029 9fbe a923 6cbe
00000030: d4e5 ecbc d3a9 0bbe ecee 03bd 4323 433e
00000040: 8240 6a3e cfe8 8a3e 2cfc 013e 06d3 73be
00000050: 80dd a0be 548a a3be a06c 563e 6da4 7a3e
00000060: be6f 00be 84d0 383d c7d0 1f3e 532f 993d
00000070: 3035 6e3e 0fa5 9e3e 2017 223d c034 8c3e
00000080: 6143 92bd 35a0 adbe a6a7 49bd 559e a13e
00000090: c5a6 c03e 42dd 3b3e b61e 63be 5bd7 d4bd
000000a0: e882 ccbd b61f 993e 9e76 5c3e bd67 223e
000000b0: 0834 1d3d 65bc 40be 1513 b1be 0303 bdbd
000000c0: 0ea4 27be 7ce2 44be 868d 2b3e 4dae 8f3e
000000d0: 4b9d 9fbe c393 babe 376b f23c 2c8d 923d
000000e0: 4eb4 8c3e d05b c2bd 9c81 1abe 839f dfbd
000000f0: 5280 48be 8a6d 563e c0c2 95be 7664 e0bb
00000100: 6eba cbbd 7791 2c3e 750f bfbc 56d1 54be
00000110: dcb6 b63d 3fd2 a93e 40e6 7bbc b112 603e
00000120: 314d eabc fdf0 023c df08 e7bd 5c46 883e
00000130: 0154 a23d 1f7b febd e6ae 4dbe c695 a03e
00000140: 7c32 e1bd ff24 66be 26a7 c93d 1b23 82be
00000150: a325 863e f880 a83c 3cd6 7c3e 622e 903e
00000160: bd5d debe ca05 a3bd 9aca a6bb 0f1f 9cbd
00000170: 2e9f 4e3e 5d4b d1bd 9a53 353d 00bb 2bbe
00000180: 1ab4 90be eb4e debd e944 0dbe 3223 8cbb
-0.14760552 0.109677896 0.18119267 0.14133851 -0.09524411 -0.13778949 -0.085116684 -0.19358964
0.13589768 0.28677827 -0.31086397 -0.23060478 -0.028918184 -0.13639002 -0.032210276 0.1905642
0.2287617 0.27130744 0.12693852 -0.23810968 -0.3141899 -0.31941473 0.20939875 0.24476786
-0.12542626 0.04512073 0.15606986 0.074797295 0.23262477 0.30985305 0.039572835 0.27383995
-0.07141758 -0.3391129 -0.049232148 0.3156611 0.37627235 0.18346122 -0.22179684 -0.10392638
-0.09985906 0.29907006 0.21529624 0.15859886 0.0383797 -0.18821867 -0.3458487 -0.0922909
-0.16371176 -0.19227022 0.16753206 0.28062668 -0.31174693 -0.36440858 0.02959214 0.07155833
0.27481312 -0.09490168 -0.15088505 -0.10919096 -0.195802 0.20940223 -0.29250145 -0.0068479134
-0.09947668 0.16852365 -0.0233228 -0.2078298 0.089215964 0.33168218 -0.01537472 0.2188213
-0.02860126 0.007992026 -0.11280989 0.2661618 0.07926179 -0.12425827 -0.2008625 0.31364268
-0.10995957 -0.2247505 0.09846334 -0.25417408 0.2620059 0.02056931 0.24691099 0.28160387
-0.43430892 -0.079600886 -0.00509007 -0.076231115 0.2017791 -0.102194525 0.04426918 -0.16770554
-0.28262407 -0.10854896 -0.13795818 -0.0042766565

bias f4 [10]
00000000: 7508 373d 77d2 92be fea4 51be 3895 90be
00000010: 86c5 403e d12f 73be cf13 7bbd 8c0d 1ebe
00000020: 947b 6e3d 1480 0d3e
0.0446858 -0.28676197 -0.20473096 -0.28238845 0.18825349 -0.2374871 -0.061298188 -0.15434855
0.058223322 0.13818389

weight f4 [10, 10]
00000000: 6632 08be cd96 303c 804c 50be 583c 1b3e
00000010: f37d 453e a422 b23d 593c 383c d7bd 55be
00000020: deac 9b3e 8daf 493e cfcc 363e 847c ca3e
00000030: a57f d4bd 1693 18bd af70 32be b175 ac3d
00000040: fd08 8c3e e064 29bd bf06 15be 3f88 0d3e
00000050: d61a 58bd 153f c93e 0a35 8bbd 7f89 173e
00000060: 60c6 8b3c 4063 1abe 1b8b 153e 621a 993e
00000070: 2afb 523e bac6 8d3e 0fea dfbe c114 82be
00000080: a13d df3d f089 1a3e 1c6c 11bd 1b4f 12bd
00000090: 2dfc 62be 88c4 63be 718c 4abe c6f2 58be
000000a0: 957c 263e cc40 ef3b 0341 63be 7f48 8b3e
000000b0: 3d65 cabd 43b4 c43e 6e1a 0b3d 19ce 34be
000000c0: 0f1c a93e 9db5 60be 3334 e03d 52f4 88bd
000000d0: 60ed 1e3c 79dd ebbc 19a5 c3be bbda 5bbe
000000e0: 8472 b03d d0ca 20bd 8612 96be d05e 533e
000000f0: 0430 133e cdc9 943c eff7 14be e92e b63e
00000100: ed67 7cbd f446 053d 466f 703e d07f 853d
00000110: f452 283e 1027 36be 10d5 183e 8803 6abe
00000120: f4da 80bd bb54 4cbe 5de3 8cbd f509 f3bd
00000130: 36eb 85bd 91cc 423d 108a 8e3e 057b b5bd
00000140: 0f4a 1cbc 1279 6dbe 6fe9 153e 33a9 c0bd
00000150: d936 85bd b6ca ef3d 18bc 31be abd2 f73d
00000160: 1f1e 483e ea9f 993d 1089 fabd 74f1 2a3e
00000170: 2299 d8bd 7ba7 cbbd 9796 91bc 4deb ba3e
00000180: c6cd 143c bd51 8d3e 06d3 603e 135e c33c
-0.13300475 0.010778141 -0.20341682 0.15159738 0.19286327 0.086980134 0.011244857 -0.208732
0.30405325 0.19695874 0.17851566 0.39548123 -0.10375909 -0.037249647 -0.17425798 0.08420885
0.27350608 -0.041355968 -0.14553355 0.13821505 -0.052759968 0.3930594 -0.06797226 0.14798544
0.017062366 -0.15076923 0.14603846 0.2990294 0.20603624 0.2769068 -0.4373326 -0.2540646
0.10900427 0.15091681 -0.03550349 -0.035719972 -0.2216651 -0.2224294 -0.19780137 -0.2118636
0.16258462 0.0073014256 -0.22192769 0.27203748 -0.09882591 0.3841878 0.033960752 -0.17656745
0.3302922 -0.2194428 0.10947456 -0.066872254 0.009700149 -0.02879213 -0.38211897 -0.21470158
0.08615592 -0.039255917 -0.29311007 0.20641637 0.14373785 0.018162632 -0.14547704 0.35582665
-0.06162255 0.03253837 0.23479947 0.06518519 0.16437894 -0.17788339 0.14925027 -0.2285291
-0.06291762 -0.19954197 -0.068793036 -0.118671335 -0.065390036 0.04755837 0.27839708 -0.08861355
-0.009539141 -0.23190716 0.14639829 -0.09407272 -0.06504602 0.11708586 -0.17356908 0.121007286
0.1954274 0.07501204 -0.12233174 0.1669367 -0.10576083 -0.09944054 -0.017772002 0.36507645
0.009082263 0.27601424 0.21955499 0.023848569

bias f4 [10]
00000000: 40e9 933e 961e 6fbe 7b7c 823e 709b 7dbe
00000010: bf9f 04be 8695 003c 9f24 4bbe 3e07 983d
00000020: 4b37 a73d ae34 76bd
0.28888893 -0.23351511 0.25485596 -0.24766326 -0.12951563 0.007848149 -0.19838189 0.07423256
0.08164843 -0.060108833
