function/l-1.pth (torch, 887504 bytes, 23 tensors)

weight f4 [10, 1]
00000000: e976 07c0 5e6e debf 8819 83c0 d920 abc0
00000010: 26ee 41bf b47e b03e ca2d 3441 9c95 6fc0
00000020: 3e82 15c1 6637 e5c0
-2.1166327 -1.7377431 -4.0968666 -5.3477597 -0.7575401 0.34471667 11.261179 -3.7435064
-9.344297 -7.1630125

bias f4 [10]
00000000: 42e6 d4c0 ad0e 3a40 d017 25c0 6c87 3ac1
00000010: eec1 2d40 9515 18bf 6a93 1142 f92c 44c1
00000020: ab29 8ac1 a1bb d940
-6.6531076 2.9071457 -2.5795784 -11.658062 2.7149615 -0.5940793 36.39396 -12.26098
-17.270346 6.804154

weight f4 [10, 10]
00000000: 69ab 85c0 260f c8be e216 17c0 2019 56c1
00000010: d13f 59bf a220 95be 7f95 b6bf 581e 02c1
00000020: 9c94 91c1 96cd 6abf b162 37be 729f 59be
00000030: 8236 6ebd f741 533e c480 e0bd c681 73be
00000040: 44bf c2bf c9fc 043e 75b4 85be 1f6d 763d
00000050: 616c b13f d6a8 8c40 375e 9940 3e03 8a3f
00000060: 84e8 4240 744a 363f 5b11 3d41 1c6d b53e
00000070: 371d 0540 5982 b640 7dfe adbf 209e 3ebf
00000080: b523 c9be 6414 84bf 9c50 4dbf 6b33 61be
00000090: cd04 80bf 40bb a3bf 2d42 a2bf f768 60bf
000000a0: 7b79 7dbf 6fa3 cebd ab9d c1be e7ea 86bf
000000b0: e383 573d b912 803e 5f41 24be a063 96bf
000000c0: a280 dbbe dfcb febd e5ff 413e cc4d 77be
000000d0: 65f8 2abe a87b 82be 51fd 85be 67a8 50be
000000e0: 5030 9cbc f997 b53d 4111 73be 1b0c 563c
000000f0: 7ee4 00c0 3333 01bf 76e6 30bf b3e0 59c0
00000100: 3b32 78bf 5d01 c1be 4775 e9bf a55b 25c0
00000110: 2080 81c0 dad0 bfbf 8ee0 d3bc e314 743c
00000120: 104c 48be 59b5 02be 0e30 99be d437 a73d
00000130: 73ea c4be a947 e03e 6025 66be 8f2d 10be
00000140: 1c98 92c0 b150 30c0 26a2 16c0 10c8 25c1
00000150: 1f56 50c0 1eb0 fabe ba52 c5c0 5361 d4c0
00000160: 3f64 41c1 a6e7 9fc0 07e7 55be 0064 aabe
00000170: 5110 f5bc 0960 7ebe da3d d5be 5935 dfbd
00000180: 2228 4bbf dee6 44bf e2dd f7be d7b7 f8be
-4.177174 -0.39074057 -2.3607717 -13.381134 -0.84863 -0.2912646 -1.4264373 -8.132408
-18.197563 -0.9171995 -0.17908742 -0.2125223 -0.05815745 0.20630632 -0.1096206 -0.23779973
-1.521462 0.12987055 -0.2611424 0.06016266 1.38612 4.39561 4.792751 1.078224
3.0454416 0.71207356 11.816737 0.35434806 2.0799081 5.7034116 -1.3593289 -0.7446003
-0.39285055 -1.0318723 -0.80201125 -0.2199227 -1.0001465 -1.2791519 -1.2676445 -0.87660164
-0.9901349 -0.10089766 -0.37815604 -1.0540437 0.05261601 0.25014284 -0.16040562 -1.1749153
-0.42871577 -0.12441229 0.18945272 -0.24150771 -0.16696317 -0.25484967 -0.26169828 -0.2037674
-0.019066006 0.08866877 -0.2373705 0.01306441 -2.013946 -0.5046875 -0.69101655 -3.4043396
-0.96951646 -0.37696353 -1.8238915 -2.5837185 -4.0468903 -1.4985611 -0.025863912 0.014897558
-0.19560266 -0.12764491 -0.29919475 0.08164945 -0.3846012 0.43804672 -0.22475195 -0.14079879
-4.581068 -2.754925 -2.3536468 -10.361343 -3.2552564 -0.48962492 -6.1663485 -6.6368804
-12.086974 -4.9970274 -0.20888911 -0.3327942 -0.029915007 -0.24841322 -0.41648751 -0.10898847
-0.7935811 -0.76914775 -0.4841147 -0.4857776

bias f4 [10]
00000000: 9449 6cc0 2085 dabe 2922 433d 32d3 56bf
00000010: ab75 28c0 74bb 2ebe c396 d8bf 57ba 99be
00000020: a030 86c0 3adc 19bf
-3.6919909 -0.4267969 0.04764 -0.8391601 -2.632182 -0.17063695 -1.6921009 -0.3002498
-4.1934357 -0.60101664

weight f4 [10, 10]
00000000: 65bf d0bf c46f 78be 570f c2bd de84 1dbf
00000010: e8a2 0bbf 7c29 313e 2892 76bf da14 343e
00000020: 4b3e 0cc0 7c95 32bf c98a 35be 1660 b83c
00000030: df1e 83c1 77dc 39be f1b7 2cbe 5d80 833e
00000040: 09df 2cbe b8ee 64be 66cf ffbd bb75 5e3e
00000050: e64b fcc0 0c0c 953e a822 47bf 1d05 b33d
00000060: ed3f acbe 0756 7f3e f7c2 06c0 b536 7e3e
00000070: 6e94 c7c0 69a6 a33c 56f7 23c1 b66a b13c
00000080: ea4c 96c1 7870 1cbf 1901 41bf b9d2 00bd
00000090: c334 54c0 4c00 b33c 872c 05c1 7c8e 17be
000000a0: 4ef8 73c1 6ba9 8b3e 4bdd 08c0 3579 12bf
000000b0: 871c b8bf d554 203e 5bbc 84c0 e0d5 333e
000000c0: 3951 48c1 5d27 07bd 5a65 d6c0 0f98 403d
000000d0: c087 5ebf 9008 52bf 97bb 45be c89f 79be
000000e0: 85b2 fabf a6e5 d0bd 0a4e f2c0 0594 16bf
000000f0: a7a2 433d 7007 643e 9751 7bbf d60c 2bbe
00000100: a5a8 57be 2d72 c13d 6905 643e f281 dc3d
00000110: 5b75 9fbe a78e 863e 23e8 adbe 148d abbb
00000120: 09f3 7ec1 08aa a1be bc16 283f c7a9 26be
00000130: 7604 03be 26e5 01bd bdf6 afbe 8333 1abe
00000140: 29a3 bcbd 17e2 223e 6309 b5be e430 4d3e
00000150: e312 97be ae2b 533e 615c 583e 9cbb 953e
00000160: 5e5c 61be 9478 9ebe 7d86 1fc1 0b6a 81be
00000170: 68d7 8ebe 237a d8be 4a53 89bf 14b6 f3bc
00000180: 6a63 5dc0 e8ca 683e 54df 0dc1 aa8d afbd
-1.6308409 -0.24261385 -0.09475582 -0.61530864 -0.5454545 0.17300981 -0.96316767 0.17586079
-2.191302 -0.69759345 -0.17728724 0.022506755 -16.390074 -0.18150507 -0.16867043 0.2568387
-0.16881956 -0.22356689 -0.1249073 0.21724598 -7.884265 0.29110754 -0.77787256 0.0874121
-0.33642522 0.2493516 -2.1056497 0.24825557 -6.236869 0.019976811 -10.247885 0.021657329
-18.787556 -0.61109114 -0.753923 -0.03145096 -3.3157203 0.021850727 -8.323371 -0.14800447
-15.248121 0.27277693 -2.1385067 -0.572162 -1.4383706 0.15657361 -4.1479926 0.17562056
-12.51983 -0.032996524 -6.699872 0.047020014 -0.8692589 -0.82044315 -0.19309841 -0.24377358
-1.958573 -0.10200052 -7.5720263 -0.5881961 0.04776254 0.22268462 -0.9817137 -0.16704115
-0.21060427 0.094456054 0.22267689 0.107669726 -0.31144223 0.2628071 -0.3396617 -0.0052353237
-15.934335 -0.31575036 0.6565969 -0.16275702 -0.1279467 -0.031712674 -0.34367934 -0.15058713
-0.09210808 0.15906559 -0.35358724 0.20038182 -0.29506597 0.20622131 0.2112899 0.29244697
-0.22007892 -0.3095137 -9.970334 -0.25276217 -0.27898717 -0.42280683 -1.0728543 -0.029749908
-3.4591928 0.22733653 -8.867023 -0.08571942

bias f4 [10]
00000000: db6d babf 97f7 b6bf 47d6 dbc0 98a9 d2c0
00000010: 78b1 89c1 1735 06c0 2bc0 26bf 99dc eb41
00000020: e995 9bbe ab68 e7c0
-1.4564775 -1.4294308 -6.869907 -6.5832024 -17.211655 -2.0969903 -0.65136975 29.482714
-0.3038781 -7.231527

weight f4 [1, 10]
00000000: a3e7 c63f a43e 5e3f dabd cd3f 11e2 b941
00000010: 553d 93c0 02de 0440 addd 12bf 9c6c 0442
00000020: 5f4b c43d 2be6 41c1
1.553944 0.8681433 1.6073563 23.235384 -4.601237 2.0760503 -0.573695 33.106064
0.095846884 -12.118693

_xsCache f4 [10000]
00000000: 0000 a0c0 0000 a0c0 0000 a0c0 0000 a0c0
00000010: 0000 a0c0 0000 a0c0 0000 a0c0 0000 a0c0
00000020: 0000 a0c0 0000 a0c0 0000 a0c0 0000 a0c0
00000030: 0000 a0c0 0000 a0c0 0000 a0c0 0000 a0c0
00000040: 0000 9fc0 0000 9fc0 0000 9fc0 0000 9fc0
00000050: 0000 9fc0 0000 9fc0 0000 9fc0 0000 9fc0
00000060: 0000 9fc0 0000 9fc0 0000 9fc0 0000 9fc0
00000070: 0000 9fc0 0000 9fc0 0000 9fc0 0000 9fc0
00000080: 0000 9fc0 0000 9fc0 0000 9fc0 0000 9fc0
00000090: 0000 9fc0 0000 9fc0 0000 9fc0 0000 9fc0
000000a0: 0000 9fc0 0000 9fc0 0000 9fc0 0000 9fc0
000000b0: 0000 9fc0 0000 9fc0 0000 9fc0 0000 9ec0
000000c0: 0000 9ec0 0000 9ec0 0000 9ec0 0000 9ec0
000000d0: 0000 9ec0 0000 9ec0 0000 9ec0 0000 9ec0
000000e0: 0000 9ec0 0000 9ec0 0000 9ec0 0000 9ec0
000000f0: 0000 9ec0 0000 9ec0 0000 9ec0 0000 9ec0
00000100: 0000 9ec0 0000 9ec0 0000 9ec0 0000 9ec0
00000110: 0000 9ec0 0000 9ec0 0000 9ec0 0000 9ec0
00000120: 0000 9ec0 0000 9ec0 0000 9ec0 0000 9ec0
00000130: 0000 9ec0 0000 9ec0 0000 9ec0 0000 9dc0
00000140: 0000 9dc0 0000 9dc0 0000 9dc0 0000 9dc0
00000150: 0000 9dc0 0000 9dc0 0000 9dc0 0000 9dc0
00000160: 0000 9dc0 0000 9dc0 0000 9dc0 0000 9dc0
00000170: 0000 9dc0 0000 9dc0 0000 9dc0 0000 9dc0
00000180: 0000 9dc0 0000 9dc0 0000 9dc0 0000 9dc0
00000190: 0000 9dc0 0000 9dc0 0000 9dc0 0000 9dc0
000001a0: 0000 9dc0 0000 9dc0 0000 9dc0 0000 9dc0
000001b0: 0000 9dc0 0000 9dc0 0000 9cc0 0000 9cc0
000001c0: 0000 9cc0 0000 9cc0 0000 9cc0 0000 9cc0
000001d0: 0000 9cc0 0000 9cc0 0000 9cc0 0000 9cc0
000001e0: 0000 9cc0 0000 9cc0 0000 9cc0 0000 9cc0
000001f0: 0000 9cc0 0000 9cc0 0000 9cc0 0000 9cc0
00000200: 0000 9cc0 0000 9cc0 0000 9cc0 0000 9cc0
00000210: 0000 9cc0 0000 9cc0 0000 9cc0 0000 9cc0
00000220: 0000 9cc0 0000 9cc0 0000 9cc0 0000 9cc0
00000230: 0000 9cc0 0000 9bc0 0000 9bc0 0000 9bc0
00000240: 0000 9bc0 0000 9bc0 0000 9bc0 0000 9bc0
00000250: 0000 9bc0 0000 9bc0 0000 9bc0 0000 9bc0
00000260: 0000 9bc0 0000 9bc0 0000 9bc0 0000 9bc0
00000270: 0000 9bc0 0000 9bc0 0000 9bc0 0000 9bc0
00000280: 0000 9bc0 0000 9bc0 0000 9bc0 0000 9bc0
00000290: 0000 9bc0 0000 9bc0 0000 9bc0 0000 9bc0
000002a0: 0000 9bc0 0000 9bc0 0000 9bc0 0000 9bc0
000002b0: 0000 9ac0 0000 9ac0 0000 9ac0 0000 9ac0
000002c0: 0000 9ac0 0000 9ac0 0000 9ac0 0000 9ac0
000002d0: 0000 9ac0 0000 9ac0 0000 9ac0 0000 9ac0
000002e0: 0000 9ac0 0000 9ac0 0000 9ac0 0000 9ac0
000002f0: 0000 9ac0 0000 9ac0 0000 9ac0 0000 9ac0
00000300: 0000 9ac0 0000 9ac0 0000 9ac0 0000 9ac0
00000310: 0000 9ac0 0000 9ac0 0000 9ac0 0000 9ac0
00000320: 0000 9ac0 0000 9ac0 0000 9ac0 0000 9ac0
00000330: 0000 99c0 0000 99c0 0000 99c0 0000 99c0
00000340: 0000 99c0 0000 99c0 0000 99c0 0000 99c0
00000350: 0000 99c0 0000 99c0 0000 99c0 0000 99c0
00000360: 0000 99c0 0000 99c0 0000 99c0 0000 99c0
00000370: 0000 99c0 0000 99c0 0000 99c0 0000 99c0
00000380: 0000 99c0 0000 99c0 0000 99c0 0000 99c0
00000390: 0000 99c0 0000 99c0 0000 99c0 0000 99c0
000003a0: 0000 99c0 0000 99c0 0000 99c0 0000 98c0
000003b0: 0000 98c0 0000 98c0 0000 98c0 0000 98c0
000003c0: 0000 98c0 0000 98c0 0000 98c0 0000 98c0
000003d0: 0000 98c0 0000 98c0 0000 98c0 0000 98c0
000003e0: 0000 98c0 0000 98c0 0000 98c0 0000 98c0
000003f0: 0000 98c0 0000 98c0 0000 98c0 0000 98c0
-5.0 -5.0 -5.0 -5.0 -5.0 -5.0 -5.0 -5.0
-5.0 -5.0 -5.0 -5.0 -5.0 -5.0 -5.0 -5.0
-4.96875 -4.96875 -4.96875 -4.96875 -4.96875 -4.96875 -4.96875 -4.96875
-4.96875 -4.96875 -4.96875 -4.96875 -4.96875 -4.96875 -4.96875 -4.96875
-4.96875 -4.96875 -4.96875 -4.96875 -4.96875 -4.96875 -4.96875 -4.96875
-4.96875 -4.96875 -4.96875 -4.96875 -4.96875 -4.96875 -4.96875 -4.9375
-4.9375 -4.9375 -4.9375 -4.9375 -4.9375 -4.9375 -4.9375 -4.9375
-4.9375 -4.9375 -4.9375 -4.9375 -4.9375 -4.9375 -4.9375 -4.9375
-4.9375 -4.9375 -4.9375 -4.9375 -4.9375 -4.9375 -4.9375 -4.9375
-4.9375 -4.9375 -4.9375 -4.9375 -4.9375 -4.9375 -4.9375 -4.90625
-4.90625 -4.90625 -4.90625 -4.90625 -4.90625 -4.90625 -4.90625 -4.90625
-4.90625 -4.90625 -4.90625 -4.90625 -4.90625 -4.90625 -4.90625 -4.90625
-4.90625 -4.90625 -4.90625 -4.90625 -4.90625 -4.90625 -4.90625 -4.90625
-4.90625 -4.90625 -4.90625 -4.90625 -4.90625 -4.90625 -4.875 -4.875
-4.875 -4.875 -4.875 -4.875 -4.875 -4.875 -4.875 -4.875
-4.875 -4.875 -4.875 -4.875 -4.875 -4.875 -4.875 -4.875
-4.875 -4.875 -4.875 -4.875 -4.875 -4.875 -4.875 -4.875
-4.875 -4.875 -4.875 -4.875 -4.875 -4.84375 -4.84375 -4.84375
-4.84375 -4.84375 -4.84375 -4.84375 -4.84375 -4.84375 -4.84375 -4.84375
-4.84375 -4.84375 -4.84375 -4.84375 -4.84375 -4.84375 -4.84375 -4.84375
-4.84375 -4.84375 -4.84375 -4.84375 -4.84375 -4.84375 -4.84375 -4.84375
-4.84375 -4.84375 -4.84375 -4.84375 -4.8125 -4.8125 -4.8125 -4.8125
-4.8125 -4.8125 -4.8125 -4.8125 -4.8125 -4.8125 -4.8125 -4.8125
-4.8125 -4.8125 -4.8125 -4.8125 -4.8125 -4.8125 -4.8125 -4.8125
-4.8125 -4.8125 -4.8125 -4.8125 -4.8125 -4.8125 -4.8125 -4.8125
-4.8125 -4.8125 -4.8125 -4.8125 -4.78125 -4.78125 -4.78125 -4.78125
-4.78125 -4.78125 -4.78125 -4.78125 -4.78125 -4.78125 -4.78125 -4.78125
-4.78125 -4.78125 -4.78125 -4.78125 -4.78125 -4.78125 -4.78125 -4.78125
-4.78125 -4.78125 -4.78125 -4.78125 -4.78125 -4.78125 -4.78125 -4.78125
-4.78125 -4.78125 -4.78125 -4.75 -4.75 -4.75 -4.75 -4.75
-4.75 -4.75 -4.75 -4.75 -4.75 -4.75 -4.75 -4.75
-4.75 -4.75 -4.75 -4.75 -4.75 -4.75 -4.75 -4.75

_ysCache f4 [10000]
00000000: 0000 dd3b 0000 dd3b 0000 dd3b 0000 dd3b
00000010: 0000 de3b 0000 de3b 0000 de3b 0000 de3b
00000020: 0000 df3b 0000 df3b 0000 df3b 0000 df3b
00000030: 0000 df3b 0000 e03b 0000 e03b 0000 e03b
00000040: 0000 e03b 0000 e13b 0000 e13b 0000 e13b
00000050: 0000 e13b 0000 e13b 0000 e23b 0000 e23b
00000060: 0000 e23b 0000 e23b 0000 e33b 0000 e33b
00000070: 0000 e33b 0000 e33b 0000 e43b 0000 e43b
00000080: 0000 e43b 0000 e43b 0000 e43b 0000 e53b
00000090: 0000 e53b 0000 e53b 0000 e53b 0000 e63b
000000a0: 0000 e63b 0000 e63b 0000 e63b 0000 e63b
000000b0: 0000 e73b 0000 e73b 0000 e73b 0000 e73b
000000c0: 0000 e83b 0000 e83b 0000 e83b 0000 e83b
000000d0: 0000 e93b 0000 e93b 0000 e93b 0000 e93b
000000e0: 0000 ea3b 0000 ea3b 0000 ea3b 0000 ea3b
000000f0: 0000 ea3b 0000 eb3b 0000 eb3b 0000 eb3b
00000100: 0000 eb3b 0000 ec3b 0000 ec3b 0000 ec3b
00000110: 0000 ec3b 0000 ed3b 0000 ed3b 0000 ed3b
00000120: 0000 ed3b 0000 ee3b 0000 ee3b 0000 ee3b
00000130: 0000 ee3b 0000 ee3b 0000 ef3b 0000 ef3b
00000140: 0000 ef3b 0000 ef3b 0000 f03b 0000 f03b
00000150: 0000 f03b 0000 f03b 0000 f13b 0000 f13b
00000160: 0000 f13b 0000 f13b 0000 f23b 0000 f23b
00000170: 0000 f23b 0000 f23b 0000 f33b 0000 f33b
00000180: 0000 f33b 0000 f33b 0000 f43b 0000 f43b
00000190: 0000 f43b 0000 f43b 0000 f43b 0000 f53b
000001a0: 0000 f53b 0000 f53b 0000 f53b 0000 f63b
000001b0: 0000 f63b 0000 f63b 0000 f63b 0000 f73b
000001c0: 0000 f73b 0000 f73b 0000 f73b 0000 f83b
000001d0: 0000 f83b 0000 f83b 0000 f83b 0000 f93b
000001e0: 0000 f93b 0000 f93b 0000 f93b 0000 fa3b
000001f0: 0000 fa3b 0000 fa3b 0000 fa3b 0000 fb3b
00000200: 0000 fb3b 0000 fb3b 0000 fb3b 0000 fc3b
00000210: 0000 fc3b 0000 fc3b 0000 fc3b 0000 fd3b
00000220: 0000 fd3b 0000 fd3b 0000 fd3b 0000 fe3b
00000230: 0000 fe3b 0000 fe3b 0000 fe3b 0000 ff3b
00000240: 0000 ff3b 0000 ff3b 0000 ff3b 0000 003c
00000250: 0000 003c 0000 003c 0000 003c 0000 003c
00000260: 0000 013c 0000 013c 0000 013c 0000 013c
00000270: 0000 013c 0000 013c 0000 013c 0000 013c
00000280: 0000 023c 0000 023c 0000 023c 0000 023c
00000290: 0000 023c 0000 023c 0000 023c 0000 023c
000002a0: 0000 033c 0000 033c 0000 033c 0000 033c
000002b0: 0000 033c 0000 033c 0000 033c 0000 043c
000002c0: 0000 043c 0000 043c 0000 043c 0000 043c
000002d0: 0000 043c 0000 043c 0000 043c 0000 053c
000002e0: 0000 053c 0000 053c 0000 053c 0000 053c
000002f0: 0000 053c 0000 053c 0000 053c 0000 063c
00000300: 0000 063c 0000 063c 0000 063c 0000 063c
00000310: 0000 063c 0000 063c 0000 073c 0000 073c
00000320: 0000 073c 0000 073c 0000 073c 0000 073c
00000330: 0000 073c 0000 083c 0000 083c 0000 083c
00000340: 0000 083c 0000 083c 0000 083c 0000 083c
00000350: 0000 083c 0000 093c 0000 093c 0000 093c
00000360: 0000 093c 0000 093c 0000 093c 0000 093c
00000370: 0000 0a3c 0000 0a3c 0000 0a3c 0000 0a3c
00000380: 0000 0a3c 0000 0a3c 0000 0a3c 0000 0b3c
00000390: 0000 0b3c 0000 0b3c 0000 0b3c 0000 0b3c
000003a0: 0000 0b3c 0000 0b3c 0000 0b3c 0000 0c3c
000003b0: 0000 0c3c 0000 0c3c 0000 0c3c 0000 0c3c
000003c0: 0000 0c3c 0000 0c3c 0000 0d3c 0000 0d3c
000003d0: 0000 0d3c 0000 0d3c 0000 0d3c 0000 0d3c
000003e0: 0000 0d3c 0000 0e3c 0000 0e3c 0000 0e3c
000003f0: 0000 0e3c 0000 0e3c 0000 0e3c 0000 0e3c
0.0067443848 0.0067443848 0.0067443848 0.0067443848 0.0067749023 0.0067749023 0.0067749023 0.0067749023
0.00680542 0.00680542 0.00680542 0.00680542 0.00680542 0.0068359375 0.0068359375 0.0068359375
0.0068359375 0.006866455 0.006866455 0.006866455 0.006866455 0.006866455 0.0068969727 0.0068969727
0.0068969727 0.0068969727 0.0069274902 0.0069274902 0.0069274902 0.0069274902 0.006958008 0.006958008
0.006958008 0.006958008 0.006958008 0.0069885254 0.0069885254 0.0069885254 0.0069885254 0.007019043
0.007019043 0.007019043 0.007019043 0.007019043 0.0070495605 0.0070495605 0.0070495605 0.0070495605
0.007080078 0.007080078 0.007080078 0.007080078 0.0071105957 0.0071105957 0.0071105957 0.0071105957
0.0071411133 0.0071411133 0.0071411133 0.0071411133 0.0071411133 0.007171631 0.007171631 0.007171631
0.007171631 0.0072021484 0.0072021484 0.0072021484 0.0072021484 0.007232666 0.007232666 0.007232666
0.007232666 0.0072631836 0.0072631836 0.0072631836 0.0072631836 0.0072631836 0.007293701 0.007293701
0.007293701 0.007293701 0.0073242188 0.0073242188 0.0073242188 0.0073242188 0.0073547363 0.0073547363
0.0073547363 0.0073547363 0.007385254 0.007385254 0.007385254 0.007385254 0.0074157715 0.0074157715
0.0074157715 0.0074157715 0.007446289 0.007446289 0.007446289 0.007446289 0.007446289 0.0074768066
0.0074768066 0.0074768066 0.0074768066 0.007507324 0.007507324 0.007507324 0.007507324 0.007537842
0.007537842 0.007537842 0.007537842 0.0075683594 0.0075683594 0.0075683594 0.0075683594 0.007598877
0.007598877 0.007598877 0.007598877 0.0076293945 0.0076293945 0.0076293945 0.0076293945 0.007659912
0.007659912 0.007659912 0.007659912 0.0076904297 0.0076904297 0.0076904297 0.0076904297 0.0077209473
0.0077209473 0.0077209473 0.0077209473 0.007751465 0.007751465 0.007751465 0.007751465 0.0077819824
0.0077819824 0.0077819824 0.0077819824 0.0078125 0.0078125 0.0078125 0.0078125 0.0078125
0.007873535 0.007873535 0.007873535 0.007873535 0.007873535 0.007873535 0.007873535 0.007873535
0.00793457 0.00793457 0.00793457 0.00793457 0.00793457 0.00793457 0.00793457 0.00793457
0.0079956055 0.0079956055 0.0079956055 0.0079956055 0.0079956055 0.0079956055 0.0079956055 0.008056641
0.008056641 0.008056641 0.008056641 0.008056641 0.008056641 0.008056641 0.008056641 0.008117676
0.008117676 0.008117676 0.008117676 0.008117676 0.008117676 0.008117676 0.008117676 0.008178711
0.008178711 0.008178711 0.008178711 0.008178711 0.008178711 0.008178711 0.008239746 0.008239746
0.008239746 0.008239746 0.008239746 0.008239746 0.008239746 0.008300781 0.008300781 0.008300781
0.008300781 0.008300781 0.008300781 0.008300781 0.008300781 0.008361816 0.008361816 0.008361816
0.008361816 0.008361816 0.008361816 0.008361816 0.008422852 0.008422852 0.008422852 0.008422852
0.008422852 0.008422852 0.008422852 0.008483887 0.008483887 0.008483887 0.008483887 0.008483887
0.008483887 0.008483887 0.008483887 0.008544922 0.008544922 0.008544922 0.008544922 0.008544922
0.008544922 0.008544922 0.008605957 0.008605957 0.008605957 0.008605957 0.008605957 0.008605957
0.008605957 0.008666992 0.008666992 0.008666992 0.008666992 0.008666992 0.008666992 0.008666992

sample bf16 [64]
00000000: 6640 c73f af3f 65be f93f 9e40 3ac0 b73f
00000010: 94c0 5a40 8140 45bf 5ac0 b6bf b43f 86c0
00000020: cbbe 8940 df3f 083f 233f 15c0 8abf 2840
00000030: 3fc0 7bc0 3c40 6d3e 21be 4fbf 7540 5d40
00000040: a6bf 0fc0 a0bf 2dc0 cc3e 83c0 b2bf 6b40
00000050: de3f 1740 21c0 ac3e 0d40 8f40 0640 09c0
00000060: 4f40 d5be 21c0 85c0 90be 9dc0 94bf 75c0
00000070: 9a40 83c0 9840 7dbf b3bf 9f40 aebf 8bc0
3.59375 1.5546875 1.3671875 -0.22363281 1.9453125 4.9375 -2.90625 1.4296875
-4.625 3.40625 4.03125 -0.76953125 -3.40625 -1.421875 1.40625 -4.1875
-0.39648438 4.28125 1.7421875 0.53125 0.63671875 -2.328125 -1.078125 2.625
-2.984375 -3.921875 2.9375 0.23144531 -0.15722656 -0.80859375 3.828125 3.453125
-1.296875 -2.234375 -1.25 -2.703125 0.3984375 -4.09375 -1.390625 3.671875
1.734375 2.359375 -2.515625 0.3359375 2.203125 4.46875 2.09375 -2.140625
3.234375 -0.41601562 -2.515625 -4.15625 -0.28125 -4.90625 -1.15625 -3.828125
4.8125 -4.09375 4.75 -0.98828125 -1.3984375 4.96875 -1.359375 -4.34375

sample bf16 [64]
00000000: 1142 9840 7c40 4d3f df40 0c43 603d 8640
00000010: 223c f141 6442 ed3e 093d 773e 8240 7c3c
00000020: 2c3f 9042 b640 d93f f23f c63d af3e 5c41
00000030: 4e3d a13c 9841 a13f 5b3f e43e 3942 fe41
00000040: 8c3e dc3d 923e 893d bf3f 893c 803e 1e42
00000050: b540 2841 a73d b33f 1141 af42 0241 f23d
00000060: cb41 293f a63d 7d3c 413f f03b a13e b13c
00000070: f842 893c e642 bf3e 7e3e 0f43 843e 523c
36.25 4.75 3.9375 0.80078125 6.96875 140.0 0.0546875 4.1875
0.009887695 30.125 57.0 0.46289062 0.033447266 0.24121094 4.0625 0.015380859
0.671875 72.0 5.6875 1.6953125 1.890625 0.09667969 0.34179688 13.75
0.05029297 0.01965332 19.0 1.2578125 0.85546875 0.4453125 46.25 31.75
0.2734375 0.107421875 0.28515625 0.06689453 1.4921875 0.016723633 0.25 39.5
5.65625 10.5 0.08154297 1.3984375 9.0625 87.5 8.125 0.11816406
25.375 0.66015625 0.08105469 0.0154418945 0.75390625 0.0073242188 0.31445312 0.021606445
124.0 0.016723633 115.0 0.37304688 0.24804688 143.0 0.2578125 0.012817383

sample bf16 [64]
00000000: c93d 5d40 6ac0 b13f c93f 3e40 6340 aa3f
00000010: 2640 25c0 2abf 6cc0 0740 acbf fabe d83f
00000020: 6ac0 2e40 babd 0a40 9f40 1ac0 b1bf 8dbf
00000030: debf 93c0 99c0 36c0 a3bf 38bd 3340 20bf
00000040: a8bf 09c0 e33f f2bd e5bf 6940 51c0 263f
00000050: 54bf 0e40 103f 2b40 a03f 8d3f 14bf a43f
00000060: 87c0 b33f 3c3f 9040 99c0 1cc0 6ec0 d1bf
00000070: 0c3f 04c0 f43f 21bf eb3f 59c0 1dc0 9ac0
0.09814453 3.453125 -3.65625 1.3828125 1.5703125 2.96875 3.546875 1.328125
2.59375 -2.578125 -0.6640625 -3.6875 2.109375 -1.34375 -0.48828125 1.6875
-3.65625 2.71875 -0.09082031 2.15625 4.96875 -2.40625 -1.3828125 -1.1015625
-1.734375 -4.59375 -4.78125 -2.84375 -1.2734375 -0.044921875 2.796875 -0.625
-1.3125 -2.140625 1.7734375 -0.11816406 -1.7890625 3.640625 -3.265625 0.6484375
-0.828125 2.21875 0.5625 2.671875 1.25 1.1015625 -0.578125 1.28125
-4.21875 1.3984375 0.734375 4.5 -4.78125 -2.4375 -3.71875 -1.6328125
0.546875 -2.0625 1.90625 -0.62890625 1.8359375 -3.390625 -2.453125 -4.8125

sample bf16 [64]
00000000: 8d3f fe41 d53c 8040 9a40 9b41 0a42 7140
00000010: 5741 9c3d 043f cd3c 0541 863e 1d3f ae40
00000020: d23c 7341 6a3f 0a41 1143 b83d 813e aa3e
00000030: 343e 273c 083c 703d 8f3e 753f 8341 093f
00000040: 8a3e f13d bc40 643f 2b3e 1842 1b3d f53f
00000050: e03e 1241 e03f 6841 5f40 4140 0f3f 6740
00000060: 723c 8240 0540 b342 0a3c b33d c63c 483e
00000070: dd3f 023e d840 083f c940 0a3d b13d 053c
1.1015625 31.75 0.026000977 4.0 4.8125 19.375 34.5 3.765625
13.4375 0.076171875 0.515625 0.025024414 8.3125 0.26171875 0.61328125 5.4375
0.025634766 15.1875 0.9140625 8.625 145.0 0.08984375 0.25195312 0.33203125
0.17578125 0.010192871 0.008300781 0.05859375 0.27929688 0.95703125 16.375 0.53515625
0.26953125 0.11767578 5.875 0.890625 0.16699219 38.0 0.037841797 1.9140625
0.4375 9.125 1.75 14.5 3.484375 3.015625 0.55859375 3.609375
0.014770508 4.0625 2.078125 89.5 0.008422852 0.087402344 0.024169922 0.1953125
1.7265625 0.12695312 6.75 0.53125 6.28125 0.033691406 0.08642578 0.008117676

momentum_buffer f4 [10, 1]
00000000: f9e1 69b7 f967 8839 f2c0 e239 a235 673a
00000010: 0aef 5639 3df5 21b9 1875 54bb 4809 1d3a
00000020: e252 903a 40b7 f43a
-1.3940496e-05 0.00026017407 0.00043249835 0.00088199426 0.0002049768 -0.00015445515 -0.0032418426 0.0005990458
0.0011011029 0.0018670335

momentum_buffer f4 [10]
00000000: 106f 843a 1ca3 3eba d758 9b39 99cd cc3a
00000010: 32bb 2bba 1d8a db38 fa4e 1abc b45a d93a
00000020: 1658 213b 39ca ddba
0.00101039 -0.000727223 0.00029630095 0.0015625238 -0.00065510266 0.000104684594 -0.009418244 0.0016582818
0.0024619154 -0.0016921229

momentum_buffer f4 [10, 10]
00000000: 41be 153a 3899 1438 0574 8539 ec33 0a3b
00000010: 7eed 9338 474a ff35 58f7 3439 67af a53a
00000020: d1c5 393b bc61 0e39 0000 0000 3a39 82b5
00000030: 0000 0000 0000 0000 c32f 1136 0000 0000
00000040: 49b6 023a 0000 0000 0000 0000 57ba a2b6
00000050: 3cda c8b9 45a0 85ba c493 94ba 2e02 5bb9
00000060: b22f 3bba fff1 4fb9 c2ca 17bb ed7f 2cb9
00000070: 92a3 4dba f2e9 b2ba 3331 0839 789d 9f38
00000080: f483 6838 5eb6 0d39 0e8b c438 9268 8737
00000090: 21cd 2939 5447 2e39 1970 f738 bf29 0f39
000000a0: e701 c138 04f8 3fb0 ec35 be37 4540 f838
000000b0: e304 8533 0000 0000 a73b 0035 5bee ff38
000000c0: b579 a338 ae10 9c34 0000 0000 0000 0000
000000d0: 0000 0000 0000 0000 0000 0000 0000 0000
000000e0: 0000 0000 0000 0000 0000 0000 0000 0000
000000f0: 0523 8539 b0cc c138 4b42 f638 77eb 123a
00000100: 0bc3 ff38 d11a 9237 6539 6139 aea6 c839
00000110: a404 2b3a cabd 4239 9891 0c37 2fbb fa37
00000120: 0dd2 4838 b7ee 6ab7 ce48 a937 09b5 2e37
00000130: d630 5a38 3c3c 4cb7 2516 b037 fbca c337
00000140: 3f68 233a 7232 ab39 9d05 a839 0f9f ce3a
00000150: b897 df39 9ccd 8238 31b1 433a de04 863a
00000160: 5829 ff3a e9db 283a 3fa6 6e38 85d8 4a38
00000170: 287a eb37 5777 5238 dd56 7338 e1f4 3537
00000180: c9e8 d338 17f7 8838 dbb3 3638 812a b038
0.0005712249 3.5428646e-05 0.00025454178 0.0021088077 7.0537426e-05 1.9020598e-06 0.0001725828 0.0012640775
0.0028346668 0.00013578584 0.0 -9.70241e-07 0.0 0.0 2.1634485e-06 0.0
0.0004986269 0.0 0.0 -4.849669e-06 -0.0003830957 -0.0010194859 -0.0011335541 -0.0002088628
-0.0007140591 -0.00019831209 -0.0023161625 -0.00016450854 -0.0007844503 -0.0013650043 0.00012988299 7.611042e-05
5.5436e-05 0.00013514745 9.371909e-05 1.6141948e-05 0.00016193512 0.00016620505 0.000117987576 0.00013653094
9.2033115e-05 -6.9837847e-10 2.2674874e-05 0.00011837533 6.194184e-08 0.0 4.777052e-07 0.00012203745
7.7951154e-05 2.90694e-07 0.0 0.0 0.0 0.0 0.0 0.0
0.0 0.0 0.0 0.0 0.00025393828 9.241083e-05 0.00011742542 0.0005604545
0.00012195677 1.7417044e-05 0.00021479053 0.0003827116 0.0006523824 0.00018571984 8.378549e-06 2.9889487e-05
4.787934e-05 -1.4003067e-05 2.0180272e-05 1.0413359e-05 5.2020732e-05 -1.2173372e-05 2.0991147e-05 2.3340332e-05
0.00062334904 0.00032653246 0.0003204764 0.0015763956 0.00042646914 6.237181e-05 0.0007465063 0.0010224839
0.0019467277 0.00064414606 5.689845e-05 4.8362203e-05 2.8071066e-05 5.0179046e-05 5.8016612e-05 1.0845456e-05
0.00010104624 6.5310094e-05 4.3559685e-05 8.400251e-05

momentum_buffer f4 [10]
00000000: ecdc 0e3a b5d4 8638 cce0 ecb8 ab57 cd38
00000010: 9c06 ff39 0000 0000 2e16 4a39 6fb0 7637
00000020: d9d1 123a 9969 5038
0.000544979 6.429238e-05 -0.000112952286 9.791491e-05 0.00048642315 0.0 0.00019272484 1.4703822e-05
0.0005600728 4.968941e-05

momentum_buffer f4 [10, 10]
00000000: f76c 2c39 0000 0000 2281 b5b5 d5da 9d38
00000010: 533e 6238 0000 0000 61ae a538 b0da 0130
00000020: f641 8d39 6afd 8138 8431 1736 abd8 8337
00000030: ccbd af3b 59fa 13b7 7265 6838 0000 0000
00000040: 8e70 cd36 64e7 08b5 c559 5e36 c7df f2b6
00000050: a9e3 9d3a 0000 0000 f1dd 8038 b26d 23b7
00000060: 26e1 8e38 0000 0000 2640 8f39 718b deb6
00000070: 3a9c 743a 8c22 b9b7 22b3 cc3a c83c 8038
00000080: 8d7a cc3b 694d 8f38 5aa1 4b39 0000 0000
00000090: e2f4 eb39 b1d6 c2b7 83d8 a93a 066f 9637
000000a0: 49a2 183b 0000 0000 8d3e 7339 884b 8038
000000b0: fd30 7c39 0000 0000 e246 2b3a 912b feb7
000000c0: 0b76 f93a 0efe b336 28a5 5f3a 0000 0000
000000d0: 4dc6 f138 d17e 0639 4f85 f337 0000 0000
000000e0: df04 9239 fdfc 3537 b041 763a bb49 b038
000000f0: 0000 0000 0000 0000 7c22 8039 3557 b136
00000100: 0000 0000 0000 0000 0000 0000 0ea9 6a34
00000110: 2a92 8734 e614 8a36 2c07 6938 0000 0000
00000120: 7b21 753b b236 fa30 4d76 9ab8 0000 0000
00000130: d214 2437 3b0f c4b4 91c6 2e38 2b99 d032
00000140: 0000 0000 0000 0000 6861 de38 0000 0000
00000150: 0000 0000 0000 0000 0000 0000 0000 0000
00000160: 0000 0000 0000 0000 9069 cb3a 0000 0000
00000170: b8bc 0d38 853e c738 af7b 4039 0000 0000
00000180: d178 0f3a cf28 f6b7 5d4d b03a 5615 1a38
0.00016443791 0.0 -1.3523133e-06 7.527104e-05 5.3940643e-05 0.0 7.900294e-05 4.72407e-10
0.0002694276 6.1984014e-05 2.2529575e-06 1.571731e-05 0.0053632017 -8.820171e-06 5.540759e-05 0.0
6.122579e-06 -5.1000666e-07 3.313283e-06 -7.238213e-06 0.0012045997 0.0 6.1448554e-05 -9.7410975e-06
6.813025e-05 0.0 0.0002732288 -6.6323487e-06 0.0009331141 -2.2069806e-05 0.001561735 6.114837e-05
0.006240195 6.83319e-05 0.00019419697 0.0 0.00045005145 -2.3226576e-05 0.0012958202 1.7933093e-05
0.002329009 0.0 0.00023197588 6.1175844e-05 0.00024050842 0.0 0.00065336947 -3.0299447e-05
0.0019032372 5.3641916e-06 0.0008531385 0.0 0.00011528712 0.00012826479 2.9029934e-05 0.0
0.0002785092 1.0847344e-05 0.00093939435 8.406067e-05 0.0 0.0 0.00024439755 5.2851633e-06
0.0 0.0 0.0 2.185445e-07 2.5252058e-07 4.1151534e-06 5.555821e-05 0.0
0.003740399 1.8205439e-09 -7.3653275e-05 0.0 9.780009e-06 -3.6518927e-07 4.1669762e-05 2.428404e-08
0.0 0.0 0.00010603928 0.0 0.0 0.0 0.0 0.0
0.0 0.0 0.0015519131 0.0 3.3792778e-05 9.5007046e-05 0.00018356623 0.0
0.000547302 -2.9344488e-05 0.001345079 3.6736332e-05

momentum_buffer f4 [10]
00000000: d82b 4139 ea5a 8f39 2716 b63a 19c2 8e3a
00000010: c79e 563b 92d7 9739 4be0 7638 f0f4 e0bb
00000020: 825e 7236 559d a53a
0.00018422247 0.00027342822 0.00138921 0.0010891586 0.0032748447 0.00028961577 5.885986e-05 -0.0068651363
3.611582e-06 0.001263539

momentum_buffer f4 [1, 10]
00000000: 7994 52b9 64b8 b0b9 cade dbb9 31ae f8bb
00000010: e7fa 023a e851 34b9 e199 e138 2087 febb
00000020: 1c0f 1ab8 9fa9 ed3a
-0.00020082471 -0.00033706718 -0.00041936926 -0.0075891246 0.0004996494 -0.0001719665 0.00010757498 -0.007767573
-3.6730533e-05 0.0018132216

xb f4 [16, 1]
00000000: 0000 4640 0000 9040 0000 d1bd 0000 9bc0
00000010: 0000 39c0 0000 bbbe 0000 08c0 0000 5b40
00000020: 0000 76c0 0000 9cc0 0000 f13e 0000 2cbd
00000030: 0000 cdbf 0000 9140 0000 5640 0000 6340
3.09375 4.5 -0.10205078 -4.84375 -2.890625 -0.36523438 -2.125 3.421875
-3.84375 -4.875 0.47070312 -0.041992188 -1.6015625 4.53125 3.34375 3.546875

yb f4 [16]
00000000: 0000 b141 0000 b642 0000 673f 0000 013c
00000010: 0000 633d 0000 323f 0000 f53d 0000 f641
00000020: 0000 b03c 0000 fa3b 0000 cd3f 0000 753f
00000030: 0000 4f3e 0000 b942 0000 e341 0000 0b42
22.125 91.0 0.90234375 0.007873535 0.055419922 0.6953125 0.119628906 30.75
0.021484375 0.0076293945 1.6015625 0.95703125 0.20214844 92.5 28.375 34.75

y f4 [16, 1]
00000000: 1828 7141 1828 7141 1828 7141 1828 7141
00000010: 1828 7141 1828 7141 1828 7141 1828 7141
00000020: 1828 7141 1828 7141 1828 7141 1828 7141
00000030: 1828 7141 1828 7141 1828 7141 1828 7141
15.0722885 15.0722885 15.0722885 15.0722885 15.0722885 15.0722885 15.0722885 15.0722885
15.0722885 15.0722885 15.0722885 15.0722885 15.0722885 15.0722885 15.0722885 15.0722885
