function/11) skip-really-deep/2.pth (torch, 226910 bytes, 52 tensors)

weight f4 [10, 1]
0	0x3ef28f68	0.47375035
1	0x3f8b4b37	1.0882329
2	0xbf50d238	-0.8157077
3	0x3f7d26e0	0.98887444
4	0xbd7bbcbf	-0.0614593
5	0x3c9c3688	0.019068971
6	0xbf1cb2fd	-0.61210614
7	0xbf750ea6	-0.95725477
8	0x3f8b9a0e	1.0906389
9	0x3ea5772a	0.32317477

bias f4 [10]
0	0x3f92a20b	1.1455702
1	0xbf85a32f	-1.0440425
2	0x3ec90908	0.39264703
3	0xbf488bce	-0.78338325
4	0xbdc31f9e	-0.09527515
5	0x3f768949	0.9630323
6	0xbef308a9	-0.47467545
7	0xbf056878	-0.5211253
8	0xbf854116	-1.0410488
9	0xbeaa31b5	-0.33241048

weight f4 [10, 10]
0	0x3e2ceac8	0.16886437
1	0x3e213b13	0.15745191
2	0xbe79ecec	-0.24406785
3	0x3e7fd216	0.24982485
4	0x3db38c04	0.0876694
5	0xbe217d43	-0.1577044
6	0xbe2a7233	-0.16645126
7	0xbeab6783	-0.3347741
8	0x3eb7b58d	0.358807
9	0x3ec1f1ff	0.3787994
10	0x3d4add85	0.049527664
11	0xbef47ae6	-0.47750014
12	0x3ed41e14	0.41429198
13	0xbdf87116	-0.121309444
14	0xbd3fa7f3	-0.04679103
15	0x3d3397e1	0.043846015
16	0xbd3ae66c	-0.045629904
17	0x3eb80cef	0.35947368
18	0xbe3e03eb	-0.18556182
19	0xbeff4ffc	-0.4986571
20	0x3d52fa2d	0.051508117
21	0x3ed0da47	0.40791532
22	0xbe0799af	-0.1324222
23	0xbd7f5918	-0.062340826
24	0xbe5c1272	-0.21491411
25	0xbe918352	-0.28420502
26	0xbec15b78	-0.37765098
27	0xbe4f65bc	-0.20253652
28	0x3f0c8d04	0.5490267
29	0x3d92de15	0.07171265
30	0x3c198026	0.009368932
31	0xbf139e89	-0.5766378
32	0x3ef52de1	0.47886565
33	0xbd16adcc	-0.03678684
34	0xbd60e6f3	-0.05490775
35	0x3d2a0777	0.041511025
36	0x3a2458ee	0.0006269355
37	0x3ee80d35	0.45322576
38	0xbf103898	-0.56336355
39	0xbe998f29	-0.29992035
40	0x3e603816	0.21896395
41	0x3ebae9a4	0.3650638
42	0xbe9884b2	-0.29788738
43	0x3e9b7bf4	0.30368006
44	0x3da40de5	0.08010463
45	0x3d68420c	0.056703612
46	0xbeb10245	-0.34572044
47	0xbcc88a04	-0.024479873
48	0x3db890ad	0.0901197
49	0x3c951dc2	0.018202666
50	0xbda655de	-0.081218466
51	0x3e4f6463	0.20253138
52	0xbed7b2f5	-0.4212872
53	0x3ed420d1	0.41431287
54	0xbd8477c4	-0.06468156
55	0x3dd23201	0.10263444
56	0xbe5d0d90	-0.21587205
57	0xbe1a4b64	-0.15067822
58	0x3edaf044	0.42761433
59	0xbdd0bcb1	-0.1019224
60	0xbd905585	-0.070475616
61	0xbe6ea067	-0.23303376
62	0x3d8786ce	0.06617509
63	0xbe127ef0	-0.14306235
64	0x3e28125d	0.16413255
65	0x3d38470a	0.044989623
66	0x3e12c9ad	0.14334746
67	0xbdd60bdc	-0.10451481
68	0xbea968d5	-0.33087793
69	0xbe59b24a	-0.21259418
70	0x3ed83a3d	0.42231932
71	0xbd005cc4	-0.03133847
72	0xbd9ce366	-0.0766056
73	0x3eaa0618	0.33207774
74	0x3dee7ba8	0.11644679
75	0x3d3be89f	0.04587614
76	0xbcf89f20	-0.030349314
77	0xbecc2320	-0.39870548
78	0x3e7d29df	0.24723004
79	0x3ec4752e	0.3837065
80	0x3f31e828	0.6949487
81	0xbd457a34	-0.048212245
82	0x3e89d6aa	0.26921588
83	0xbe4ca25c	-0.1998381
84	0x3e4c42c5	0.19947346
85	0x3f1f3a36	0.621982
86	0x3e170a73	0.1475008
87	0xbc861cd9	-0.016371178
88	0xbe52b7ac	-0.20577878
89	0x3e05a2fc	0.13050455
90	0x3d2faa2f	0.04288691
91	0x3e04bf10	0.1296351
92	0xbeb35526	-0.350259
93	0x3e780e10	0.24224114
94	0x3d35cfe7	0.044387724
95	0xbf0d8a5f	-0.5528926
96	0x3d0701b1	0.032960597
97	0xbe68482a	-0.22683778
98	0x3e8495e6	0.25895613
99	0xbdbb4a00	-0.09144974

bias f4 [10]
0	0xbef2ca3e	-0.47419924
1	0xbda5f95d	-0.08104203
2	0xbeb0d7da	-0.34539682
3	0x3ddd6079	0.10809416
4	0x3e119053	0.14215212
5	0xbebdc476	-0.3706395
6	0xbe09f4a2	-0.13472226
7	0x3d8ea965	0.06965903
8	0x3f00f1c8	0.5036893
9	0xbe0475fa	-0.1293563

weight f4 [10, 10]
0	0xbed977fd	-0.42474356
1	0x3e8c4b9a	0.2740143
2	0x3ca004c4	0.019533522
3	0x3ebdd5cb	0.37077174
4	0xbe0e3632	-0.13887861
5	0xbe1414ca	-0.14461055
6	0x3e558b94	0.20854026
7	0xbed7ebf2	-0.421722
8	0x3f2b83f1	0.669982
9	0x3e4370cc	0.19085997
10	0x3d76604f	0.06015044
11	0x3eac7375	0.33681837
12	0xbeae498b	-0.34040484
13	0x3d518a13	0.05115707
14	0x3e048469	0.12941135
15	0xbd1a9176	-0.03773638
16	0xbd8379f5	-0.06419746
17	0x3ccc7bc7	0.024961365
18	0xbea020b2	-0.31274945
19	0x3de8e3f7	0.11371606
20	0xbe3c2cb0	-0.18376422
21	0x3ea64265	0.3247253
22	0xbf00971a	-0.5023056
23	0x3ef2691c	0.47345817
24	0xbd4138b3	-0.047173213
25	0xbf007160	-0.50172997
26	0x3ca80f3b	0.020515075
27	0xbedc7b9c	-0.43063056
28	0x3f43823c	0.76370597
29	0xbd26475e	-0.040595405
30	0xbdbc9047	-0.09207206
31	0xbde46a75	-0.111531176
32	0x3eff677c	0.4988364
33	0xbdddf07b	-0.10836884
34	0x3eb826c4	0.35967076
35	0x3ee6f160	0.4510603
36	0x3e3b05db	0.18263952
37	0x3e35f98c	0.17770976
38	0xbeba8fcc	-0.36437833
39	0x3e3af459	0.18257274
40	0xbe947e0c	-0.29002416
41	0x3dae0f70	0.08499038
42	0xbe88c56e	-0.26713127
43	0x3f011a40	0.5043068
44	0x3ecb82e2	0.39748293
45	0xbe6939a8	-0.227759
46	0xbd5171bc	-0.051133856
47	0x3da81d5c	0.08208725
48	0x3f3eb4a8	0.7449441
49	0x3e88ee33	0.26744232
50	0xbde3095c	-0.110857695
51	0xbe0ff3c8	-0.14057839
52	0xbe6d9bb5	-0.23203929
53	0x3d431456	0.047626816
54	0xbd7bbff0	-0.061462343
55	0xbd939d48	-0.072077334
56	0x3def2fdd	0.11679051
57	0x3efc6ceb	0.49301848
58	0x3f4b4aa9	0.794108
59	0xbea37ee5	-0.3193275
60	0x3e9ee5c9	0.31034687
61	0xbdc88bc7	-0.097922854
62	0x3ed657d0	0.4186387
63	0xbe82ee70	-0.25572538
64	0x3e858b89	0.2608302
65	0x3e6a0f54	0.2285741
66	0xbe8e882d	-0.2783827
67	0x3e41bf85	0.18920715
68	0xbf2e83f8	-0.6817012
69	0x3ca1b50e	0.019739654
70	0xbecf9210	-0.40541124
71	0xbd0b4110	-0.033997595
72	0xbeb43ee3	-0.3520423
73	0x3edd87ae	0.43267578
74	0xbe5a4dbd	-0.21318717
75	0x3cff4c25	0.031164238
76	0xbd96c980	-0.07362652
77	0xbe35ebb9	-0.17765702
78	0x3eba0d2f	0.36338183
79	0xbe14339d	-0.14472814
80	0xbe80a2c3	-0.25124177
81	0xbc0d709a	-0.008632803
82	0xbe943453	-0.2894617
83	0x3ef19e1f	0.4719095
84	0x3e30e795	0.17275842
85	0x3d35f8b9	0.044426654
86	0x3d1327e2	0.035926707
87	0x3e017cb1	0.12645222
88	0x3f5ef190	0.87087345
89	0xbe6984cf	-0.22804569
90	0x3eded9f7	0.4352567
91	0xbed94422	-0.42434794
92	0x3e61f6c0	0.22066784
93	0xbececc43	-0.40390214
94	0x3e32d16a	0.17462698
95	0x3e5098b7	0.20370756
96	0xbe9302dd	-0.28713122
97	0x3e990832	0.29889065
98	0xbe8cacaf	-0.27475497
99	0x3e8ea6bc	0.27861583

bias f4 [10]
0	0xbdb8a050	-0.09014952
1	0xbee6f728	-0.4511044
2	0xbd8c0cc1	-0.0683837
3	0xbd01301c	-0.03154002
4	0x3e93875a	0.28814203
5	0x3f11b636	0.56918657
6	0x3e1f5922	0.15561345
7	0xbc05c08f	-0.008163585
8	0x3e88ac08	0.2669375
9	0x3e575fbb	0.21032612

weight f4 [10, 10]
0	0xbed33f5a	-0.4125927
1	0x3d40beac	0.04705684
2	0xbf0f82b4	-0.5605881
3	0x3c1eed40	0.0097001195
4	0xbe9db911	-0.30805257
5	0xbf3682d2	-0.71293366
6	0x3eb86af6	0.36019105
7	0xbdccc15f	-0.0999782
8	0xbf379075	-0.717048
9	0x3e84cf28	0.25939298
10	0x3d9f9f0b	0.07794007
11	0x3e809ed9	0.2512119
12	0xbe382a5e	-0.17984912
13	0xbc3251e5	-0.010883783
14	0xbf21b4d9	-0.63166577
15	0xbf37d0e2	-0.71803105
16	0x3dc81ad8	0.09770745
17	0xbd3ed52e	-0.046590023
18	0xbeab28bc	-0.33429515
19	0x3ef7fe00	0.48435974
20	0xbbb36a09	-0.005475287
21	0xbd682b66	-0.056682013
22	0x3e1d53ec	0.15364045
23	0x3d939d2d	0.07207713
24	0xbeb39f65	-0.35082546
25	0xbe5e7773	-0.21725254
26	0x3e450877	0.1924151
27	0x3e0220ca	0.1270782
28	0xbe96e630	-0.29472494
29	0x3e30a9d2	0.17252281
30	0xbecfaaca	-0.4055999
31	0xbd790f1a	-0.060805418
32	0xbe9dcc2a	-0.30819827
33	0x3e8d15c7	0.27555677
34	0xbf47c133	-0.78029174
35	0xbf3e8324	-0.74418855
36	0x3e895430	0.26822042
37	0x3df9e970	0.12202728
38	0xbf2f4bfd	-0.68475324
39	0x3ea4e953	0.32209262
40	0xbf12731e	-0.57206905
41	0xbe2df58a	-0.16988197
42	0xbf1d12b3	-0.6135666
43	0xbd36ed2f	-0.04465979
44	0x3de7f6c8	0.11326367
45	0x3ec6de91	0.3884168
46	0xbe14d508	-0.1453439
47	0xbe84c0b9	-0.25928286
48	0x3e9097de	0.28240865
49	0x3d95dff7	0.073181085
50	0xbf05c92f	-0.52260107
51	0x3e84883e	0.25885195
52	0xbebb65fb	-0.36601242
53	0x3e9ef2b2	0.31044537
54	0xbe4bc9dc	-0.19901222
55	0xbf549261	-0.83035856
56	0x3e24d177	0.1609553
57	0xbe52d3a7	-0.20588551
58	0xbe91e6b5	-0.28496328
59	0x3ead2524	0.338174
60	0xbe43b13c	-0.19110578
61	0x3d22cce7	0.03974619
62	0xbd2bd203	-0.04194833
63	0x3e996fd9	0.29968145
64	0xbf25f6b3	-0.6482956
65	0xbf45a99c	-0.7721193
66	0x3dc5bfed	0.096557476
67	0xbe857171	-0.2606311
68	0xbf54839e	-0.8301333
69	0x3ed8f0ef	0.42371318
70	0xbd8e72a2	-0.06955458
71	0xbca219b3	-0.019787645
72	0x3d99fa2a	0.07518418
73	0x3e18cc2c	0.14921635
74	0x3e826568	0.25467992
75	0x3f44e73f	0.76915354
76	0xbd78e4ec	-0.060765192
77	0x3e070aa9	0.1318766
78	0x3f207992	0.626855
79	0xbe893e5a	-0.26805383
80	0x3da55c3e	0.080742344
81	0x3db4a535	0.08820573
82	0xbe5f069b	-0.21779864
83	0x3ec673e7	0.387603
84	0xbe8600c0	-0.26172447
85	0xbee9764d	-0.4559807
86	0xbc7f3fa2	-0.015579136
87	0xbe73d2bc	-0.23810858
88	0xbf1e3457	-0.61798614
89	0x3dc678a6	0.096909806
90	0xbef5c6cb	-0.4800323
91	0x3d8ae26e	0.06781469
92	0xbee316f7	-0.44353458
93	0x3e95a90a	0.2923053
94	0xbe3d9b69	-0.18516316
95	0xbf3874c2	-0.7205316
96	0x3f056484	0.521065
97	0xbecd1133	-0.40052184
98	0xbf4b2427	-0.7935204
99	0x3eb0eb7b	0.34554657

bias f4 [10]
0	0xbdf4f68a	-0.11961086
1	0xbd00d448	-0.031452447
2	0x3cd99d69	0.026564317
3	0x3d53259b	0.051549535
4	0x3f1b7f72	0.6074134
5	0x3d6f586e	0.058433942
6	0xb944de32	-0.00018774791
7	0x3f05b584	0.52230096
8	0xbe8fcaee	-0.2808451
9	0x3bf4e4bd	0.007473557

weight f4 [10, 10]
0	0x3ecb63d4	0.397246
1	0x3e6d2506	0.23158655
2	0xbd3b9803	-0.045799267
3	0x3f109c96	0.5648893
4	0xbee09978	-0.43867087
5	0x3b9c81dd	0.004776223
6	0x3ef1e29b	0.472432
7	0xbdeee44d	-0.11664639
8	0x3ed29017	0.41125557
9	0x3ea395bc	0.31950176
10	0xbd188e69	-0.037245188
11	0xbee7da7b	-0.45283875
12	0xbd9651dd	-0.07339833
13	0xbeee69ba	-0.46565038
14	0x3ee97e9e	0.45604414
15	0xbebed593	-0.3727232
16	0xbe038cce	-0.12846681
17	0x3e33826b	0.1753022
18	0xbe97e943	-0.29670152
19	0xbbaa0136	-0.0051881326
20	0x3e55090c	0.20804232
21	0x3ed28d16	0.41123265
22	0xbd86e30f	-0.06586277
23	0x3e9db0ab	0.3079885
24	0xbf63037e	-0.88677204
25	0x3e5cfcb1	0.21580769
26	0x3ec6d37d	0.38833228
27	0xbf6f1240	-0.9338722
28	0x3bb414c8	0.0054956414
29	0x3e559bce	0.20860216
30	0x3f047201	0.51736456
31	0x3d0e861c	0.034795865
32	0xbe44b8a3	-0.19211058
33	0x3f00d73e	0.50328434
34	0xbecabded	-0.39598027
35	0x3ec9da82	0.3942452
36	0x3ece1acc	0.4025482
37	0xbd390e92	-0.04517991
38	0x3d96b2db	0.07358333
39	0x3ecba87e	0.39776987
40	0xbd6c47c8	-0.057685643
41	0x3edd2cd4	0.43198264
42	0x3ebc375e	0.36760992
43	0x3e3352dc	0.17512077
44	0xbf05fa7a	-0.5233532
45	0x3e1d32c6	0.153514
46	0x3f00d2f2	0.50321877
47	0xbef34a68	-0.47517705
48	0x3f01ed73	0.50752944
49	0x3ef2d188	0.47425485
50	0x3e75ffcd	0.24023362
51	0x3e244180	0.16040611
52	0x3ec3e044	0.3825704
53	0x3f093023	0.53589076
54	0xbeec3b47	-0.46138975
55	0x3e08a92e	0.13345787
56	0x3e5ccf28	0.21563399
57	0x3d5ed6ca	0.054404058
58	0x3e87736a	0.2645524
59	0x3c396096	0.011314532
60	0x3e19aa9d	0.1500649
61	0x3d9e5490	0.07730973
62	0x3e7fabbf	0.2496786
63	0x3efef87c	0.49798954
64	0xbf46e463	-0.7769224
65	0x3ec15648	0.3776114
66	0x3e7e21c9	0.24817576
67	0xbf23e52f	-0.6402158
68	0x3f0217f1	0.5081778
69	0x3edc9515	0.4308249
70	0x3da47955	0.08030955
71	0x3dc686e3	0.09693696
72	0x3d76ec6a	0.060284056
73	0x3f042e5b	0.5163323
74	0xbebb0246	-0.36525172
75	0x3e5d8dfe	0.21636197
76	0x3dbd210d	0.092348196
77	0xbdc89f90	-0.09796059
78	0x3e3bd258	0.18341959
79	0x3ec69b09	0.38790157
80	0xbdf7611b	-0.12079068
81	0x3d15ecee	0.036602907
82	0x3e07951b	0.13240473
83	0xbe9f4c61	-0.3111296
84	0x3e9bba8e	0.30415767
85	0x3f06cb16	0.52653635
86	0x3ec51ff2	0.38500935
87	0x3ed5f4b2	0.4178825
88	0xbeb7ad0f	-0.3587422
89	0xbd0b8bb9	-0.034068797
90	0xbed67abb	-0.4189051
91	0xbec3252c	-0.38114297
92	0x3e02e198	0.1278137
93	0xbf109f34	-0.56492925
94	0xbde2bfd6	-0.11071746
95	0xbd11ddae	-0.0356118
96	0x3e99ec1a	0.30062944
97	0x3efe60a6	0.49683112
98	0xbf03ecf9	-0.51533467
99	0xbed36818	-0.41290355

bias f4 [10]
0	0x3ce35d53	0.027754461
1	0x3e0802c5	0.13282306
2	0xbeae1cb9	-0.3400629
3	0x3e1e1ed2	0.15441445
4	0xbe534458	-0.2063154
5	0x3df6b112	0.12045492
6	0xbc0d487d	-0.00862324
7	0xbe8eeb35	-0.27913824
8	0x3f088c29	0.5333887
9	0x3d374a37	0.04474851

weight f4 [10, 10]
0	0x3e80607d	0.25073615
1	0xbe539103	-0.20660786
2	0xbd12b7a6	-0.035819672
3	0x3ea2cae8	0.3179543
4	0x3df5b94f	0.119982354
5	0xbd893692	-0.066998616
6	0x3ba8e51b	0.0051542646
7	0x3ef40492	0.47659737
8	0xbe2ff2e8	-0.17182505
9	0xbef09a8f	-0.4699292
10	0x3ef04351	0.46926358
11	0x3d94ab20	0.07259202
12	0x3e813ec5	0.25243202
13	0x3f08d2ce	0.5344666
14	0x3ee2309f	0.4417772
15	0x3ef2d9dd	0.47431841
16	0x3e93b595	0.28849474
17	0xbd2ba39d	-0.04190408
18	0xbe914ed5	-0.28380457
19	0xbe85de6a	-0.2614625
20	0xbe907238	-0.28212142
21	0x3e4f79f2	0.20261362
22	0xbdd3f32b	-0.10349115
23	0x3d668fbf	0.05628943
24	0x3de300c7	0.11084133
25	0xbde222a3	-0.11041763
26	0x3d7a692f	0.061135467
27	0x3e84c15a	0.25928766
28	0x3f23b561	0.6394864
29	0x3eb446ba	0.3521021
30	0x3e185c62	0.14878991
31	0x3d7abf1a	0.061217405
32	0x3eba2ca2	0.36362177
33	0x3e0e4c97	0.13896404
34	0x3e3991cc	0.18122023
35	0xbcf7aa8a	-0.030232687
36	0x3e7deba5	0.24796923
37	0x3efab104	0.48963177
38	0xbf801ea0	-1.0009346
39	0xbe9f11a7	-0.31068155
40	0x3ec400fe	0.38282007
41	0xbeedad32	-0.464212
42	0x3e7c28d1	0.24624945
43	0x3e8d6e26	0.276231
44	0x3ecc218c	0.39869344
45	0x3c0bed91	0.008540527
46	0x3ef37f77	0.47558185
47	0x3d6ddce3	0.058071982
48	0xbf3fc9b2	-0.7491714
49	0xbda97138	-0.08273548
50	0x3ecb3632	0.39689785
51	0xbdc60967	-0.09669762
52	0x3ea4a76a	0.32158977
53	0x3e9f0e73	0.3106571
54	0x3d931160	0.071810484
55	0x3e41fce1	0.18944122
56	0x3ebaeed4	0.36510336
57	0xbc78585f	-0.015157788
58	0xbeafeaa9	-0.3435872
59	0xbe8c749d	-0.2743272
60	0xbda4bd0a	-0.08043869
61	0x3d8c9de2	0.06866051
62	0xbcd2cd0b	-0.025732538
63	0x3d92ef0c	0.07174501
64	0xbee9851c	-0.45609367
65	0x3db0060e	0.08594905
66	0xbe4c664e	-0.19960901
67	0xbd2829a4	-0.041055337
68	0x3f3bc4b4	0.7334702
69	0xbf0c31c7	-0.54763454
70	0x3e4b07c8	0.19827187
71	0xbe9578ee	-0.29193825
72	0x3e486e67	0.19573365
73	0x3efd75a2	0.4950381
74	0x3f069275	0.52567226
75	0x3edd0f8c	0.43175924
76	0x3e55fe22	0.20897725
77	0x3ef71fdd	0.48266497
78	0xbed766ae	-0.42070526
79	0xbe8e823f	-0.27833745
80	0x3cd844e4	0.026400037
81	0xbe9a5df5	-0.3014981
82	0x3efa9531	0.4894195
83	0x3f06e479	0.5269237
84	0x3f007045	0.5017131
85	0x3ef3a73a	0.4758852
86	0x3e0a207a	0.13488951
87	0x3f017881	0.505745
88	0xbf16b015	-0.5886243
89	0xbec8b7e4	-0.39202797
90	0x3e3b3438	0.18281639
91	0x3ea60fd4	0.3243395
92	0x3e359afb	0.17734902
93	0x3e90feea	0.28319484
94	0x3eed91ce	0.46400303
95	0x3ef6c412	0.48196465
96	0x3e4066aa	0.18789163
97	0x3f072968	0.52797556
98	0x3c890840	0.016727567
99	0xbed89275	-0.42299238

bias f4 [10]
0	0x3e507931	0.20358731
1	0xbc554ee8	-0.013019301
2	0x3ea5fda6	0.3242008
3	0xbd422bb7	-0.04740497
4	0xbe983ee1	-0.29735473
5	0xbd3eeb93	-0.04661138
6	0x3ef3d474	0.47623026
7	0xbe116f44	-0.142026
8	0xbdddccd5	-0.10830084
9	0x3e06faf9	0.13181676

weight f4 [10, 10]
0	0x3e599d4c	0.2125141
1	0x3e3a7b6c	0.18211144
2	0x3e801c16	0.25021428
3	0x3de0dd5d	0.10979722
4	0x3eb5eae7	0.3553078
5	0x3efb1ca3	0.49045286
6	0x3ecdfee2	0.40233523
7	0x3f0955fa	0.53646815
8	0x3f0372d1	0.5134707
9	0x3e8f2ae1	0.27962402
10	0x3e05250c	0.13002414
11	0xbcc49bef	-0.024000136
12	0xbdfae778	-0.122511804
13	0x3e66ef42	0.22552207
14	0x3d1d4111	0.03839213
15	0x3ea4aa7a	0.32161313
16	0x3f0f99b0	0.56093884
17	0x3e3e750b	0.18599336
18	0x3e369a1b	0.17832224
19	0x3e7694bf	0.2408018
20	0xbedc89f5	-0.43074003
21	0xbdaa388c	-0.08311567
22	0xbe372ea0	-0.1788888
23	0x3dd6d005	0.10488895
24	0xbe108f3a	-0.14117137
25	0x3db83de0	0.08996177
26	0x3d0bb562	0.034108527
27	0xbe365a18	-0.17807806
28	0xbe02cb3e	-0.12772843
29	0x3e153017	0.14569126
30	0x3e86ac36	0.26303262
31	0x3f0cb31f	0.5496082
32	0xbe9cff53	-0.30663547
33	0x3e1601f4	0.14649183
34	0x3e94aa53	0.29036197
35	0x3ddf65ad	0.10908065
36	0x3eb79029	0.35852173
37	0x3eca7acc	0.39546812
38	0x3ef3481f	0.47515962
39	0x3dd4bf50	0.103880525
40	0x3e39bf2b	0.18139331
41	0x3ef7ddf5	0.48411527
42	0xbe59242d	-0.21205206
43	0x3ec24f31	0.37951043
44	0x3ea7f026	0.32800406
45	0x3f0df0f6	0.554458
46	0x3f03d8c3	0.5150263
47	0x3efd38b0	0.49457312
48	0x3e850920	0.25983524
49	0x3e89c0ff	0.26905057
50	0x3e157762	0.14596322
51	0x3ebeb854	0.37250006
52	0xbc00937c	-0.007847663
53	0x3ef93117	0.48670265
54	0x3e2d1568	0.16902697
55	0xbd81d8b9	-0.06340165
56	0x3e46bac6	0.19407186
57	0x3e8a4b20	0.2701044
58	0x3e6529bf	0.22379206
59	0xbdf62bd9	-0.12020082
60	0x3e97a1f6	0.29615754
61	0x3d99b359	0.07504911
62	0xbebdd55e	-0.3707685
63	0x3e89400c	0.26806676
64	0x3eaa8c79	0.33310297
65	0x3ea7aac3	0.32747468
66	0x3f14a090	0.580575
67	0x3eee6606	0.46562213
68	0x3f068ed4	0.5256169
69	0x3ed5b721	0.4174128
70	0xbed3a624	-0.41337693
71	0xbefc7d0a	-0.49314147
72	0xbc22ea08	-0.009943493
73	0xbed3acfc	-0.41342914
74	0xbe76628b	-0.24061029
75	0x3da77ddb	0.08178302
76	0xbebc0084	-0.36719143
77	0xbec5bb1d	-0.3861932
78	0xbf05a521	-0.5220509
79	0xbe856863	-0.26056203
80	0xbd667b81	-0.056270126
81	0x3ef924ad	0.48660794
82	0x3c329d22	0.010901721
83	0x3e92533d	0.2857913
84	0x3ef4b787	0.4779627
85	0x3dc6dbbd	0.097098805
86	0x3ece3dce	0.40281528
87	0x3e2a85bd	0.1665258
88	0x3e7e1044	0.24810892
89	0x3e9a7985	0.30170837
90	0x3e78788b	0.24264733
91	0xbd08d7bf	-0.033408877
92	0xbcbde0a2	-0.023178402
93	0x3e68cad2	0.2273362
94	0x3e0d73d9	0.13813724
95	0x3ed4d60b	0.41569552
96	0x3e87820a	0.264664
97	0x3f09849f	0.5371799
98	0xbd6c65af	-0.05771416
99	0x3cd47d98	0.025938794

bias f4 [10]
0	0x3e604e94	0.21904975
1	0xbe882dcf	-0.2659745
2	0x3e04d109	0.12970366
3	0x3ba2a2a9	0.0049632383
4	0xbe485955	-0.19565327
5	0xbe8b03a2	-0.2715121
6	0x3e24fa83	0.16111188
7	0xbc66cb6c	-0.0140865855
8	0x3eb2bb93	0.34908733
9	0xbe8ff949	-0.28119877

weight f4 [1, 10]
0	0x3f0ce159	0.55031353
1	0x3e8f4d0f	0.2798848
2	0xbd3f1c28	-0.04665771
3	0x3f0666e5	0.52500755
4	0x3ed47310	0.41494036
5	0x3e753e6b	0.23949592
6	0x3efd4a88	0.49470925
7	0xbe90281f	-0.2815561
8	0x3ee6552a	0.4498685
9	0x3ee1ee6f	0.44127223

sample bf16 [64]
0	0x3fe4	1.78125
1	0x3db8	0.08984375
2	0x401d	2.453125
3	0xc096	-4.6875
4	0x3fb6	1.421875
5	0xbf86	-1.046875
6	0x402d	2.703125
7	0x406b	3.671875
8	0x3ff5	1.9140625
9	0xc023	-2.546875
10	0x3f70	0.9375
11	0xbf13	-0.57421875
12	0xc089	-4.28125
13	0xc08b	-4.34375
14	0xc09a	-4.8125
15	0x3d51	0.05102539
16	0x3fc1	1.5078125
17	0x404d	3.203125
18	0xc059	-3.390625
19	0x4092	4.5625
20	0xc01e	-2.46875
21	0x4042	3.03125
22	0x4019	2.390625
23	0xbe0e	-0.13867188
24	0xc08d	-4.40625
25	0x3fa2	1.265625
26	0xc088	-4.25
27	0x3e86	0.26171875
28	0x4017	2.359375
29	0x3ed4	0.4140625
30	0x4058	3.375
31	0xc09f	-4.96875
32	0xbfed	-1.8515625
33	0x3e72	0.23632812
34	0xc022	-2.53125
35	0x3f3b	0.73046875
36	0x400f	2.234375
37	0x3e85	0.25976562
38	0xbf0b	-0.54296875
39	0xc00b	-2.171875
40	0xc09f	-4.96875
41	0x3f42	0.7578125
42	0x3f3f	0.74609375
43	0x3f8f	1.1171875
44	0x3fa1	1.2578125
45	0x4086	4.1875
46	0xc010	-2.25
47	0xbca4	-0.020019531
48	0x408d	4.40625
49	0x400b	2.171875
50	0xc089	-4.28125
51	0x400d	2.203125
52	0xc081	-4.03125
53	0xc086	-4.1875
54	0xc00a	-2.15625
55	0xbf2f	-0.68359375
56	0x3ff5	1.9140625
57	0xbde9	-0.11376953
58	0x401d	2.453125
59	0x4088	4.25
60	0xbffe	-1.984375
61	0x3fcb	1.5859375
62	0x3fe6	1.796875
63	0xbff4	-1.90625

sample bf16 [64]
0	0x40bf	5.96875
1	0x3f8c	1.09375
2	0x413a	11.625
3	0x3c15	0.009094238
4	0x4084	4.125
5	0x3eb3	0.34960938
6	0x416e	14.875
7	0x421c	39.0
8	0x40da	6.8125
9	0x3da0	0.078125
10	0x4023	2.546875
11	0x3f10	0.5625
12	0x3c66	0.014038086
13	0x3c53	0.012878418
14	0x3c04	0.008056641
15	0x3f87	1.0546875
16	0x4090	4.5
17	0x41c5	24.625
18	0x3d09	0.033447266
19	0x42be	95.0
20	0x3dae	0.08496094
21	0x41a7	20.875
22	0x412f	10.9375
23	0x3f5f	0.87109375
24	0x3c48	0.012207031
25	0x4062	3.53125
26	0x3c66	0.014038086
27	0x3fa6	1.296875
28	0x4129	10.5625
29	0x3fc2	1.515625
30	0x41ea	29.25
31	0x3be2	0.0068969727
32	0x3e21	0.15722656
33	0x3fa2	1.265625
34	0x3da3	0.079589844
35	0x4005	2.078125
36	0x4114	9.25
37	0x3fa6	1.296875
38	0x3f15	0.58203125
39	0x3de8	0.11328125
40	0x3be5	0.0069885254
41	0x4009	2.140625
42	0x4007	2.109375
43	0x4043	3.046875
44	0x4061	3.515625
45	0x4285	66.5
46	0x3dd9	0.10595703
47	0x3f7b	0.98046875
48	0x42a4	82.0
49	0x410c	8.75
50	0x3c61	0.01373291
51	0x4110	9.0
52	0x3c93	0.017944336
53	0x3c7c	0.015380859
54	0x3dee	0.11621094
55	0x3f01	0.50390625
56	0x40d9	6.78125
57	0x3f64	0.890625
58	0x4139	11.5625
59	0x428a	69.0
60	0x3e0c	0.13671875
61	0x409c	4.875
62	0x40c1	6.03125
63	0x3e18	0.1484375

sample bf16 [64]
0	0x4046	3.09375
1	0xc097	-4.71875
2	0xc06f	-3.734375
3	0xbf12	-0.5703125
4	0x4032	2.78125
5	0x4043	3.046875
6	0xc016	-2.34375
7	0x4039	2.890625
8	0x3f04	0.515625
9	0xc08b	-4.34375
10	0x3e5a	0.21289062
11	0x409e	4.9375
12	0x4067	3.609375
13	0x4081	4.03125
14	0xbf9a	-1.203125
15	0x3ff8	1.9375
16	0xc07b	-3.921875
17	0x4085	4.15625
18	0xc060	-3.5
19	0xbf84	-1.03125
20	0x3fa5	1.2890625
21	0x4036	2.84375
22	0x4084	4.125
23	0xc083	-4.09375
24	0x3f85	1.0390625
25	0xc046	-3.09375
26	0x406e	3.71875
27	0x3ea5	0.32226562
28	0xc00e	-2.21875
29	0x409a	4.8125
30	0x4061	3.515625
31	0xc00b	-2.171875
32	0x409b	4.84375
33	0xc079	-3.890625
34	0x404e	3.21875
35	0x4064	3.5625
36	0x402e	2.71875
37	0x400c	2.1875
38	0xc094	-4.625
39	0xbf88	-1.0625
40	0xc092	-4.5625
41	0xbe7a	-0.24414062
42	0x401b	2.421875
43	0x402f	2.734375
44	0x3f91	1.1328125
45	0xc00f	-2.234375
46	0xc047	-3.109375
47	0xbfb6	-1.421875
48	0x4082	4.0625
49	0xc089	-4.28125
50	0x3f31	0.69140625
51	0x405f	3.484375
52	0xc065	-3.578125
53	0xc08a	-4.3125
54	0x3fbe	1.484375
55	0xc038	-2.875
56	0x4006	2.09375
57	0xc071	-3.765625
58	0xbf5e	-0.8671875
59	0x3f4f	0.80859375
60	0x4087	4.21875
61	0x4018	2.375
62	0x405b	3.421875
63	0xc046	-3.09375

sample bf16 [64]
0	0x41af	21.875
1	0x3c12	0.008911133
2	0x3cc5	0.024047852
3	0x3f10	0.5625
4	0x4181	16.125
5	0x41a9	21.125
6	0x3dc5	0.096191406
7	0x4191	18.125
8	0x3fd6	1.671875
9	0x3c53	0.012878418
10	0x3f9e	1.234375
11	0x430b	139.0
12	0x4214	37.0
13	0x4260	56.0
14	0x3e9a	0.30078125
15	0x40dd	6.90625
16	0x3ca1	0.01965332
17	0x427f	63.75
18	0x3cf9	0.030395508
19	0x3eb6	0.35546875
20	0x4068	3.625
21	0x418a	17.25
22	0x4278	62.0
23	0x3c87	0.016479492
24	0x4035	2.828125
25	0x3d39	0.045166016
26	0x4224	41.0
27	0x3fb1	1.3828125
28	0x3ddf	0.10888672
29	0x42f9	124.5
30	0x4206	33.5
31	0x3dea	0.11425781
32	0x42fd	126.5
33	0x3ca9	0.020629883
34	0x41c8	25.0
35	0x420d	35.25
36	0x4172	15.125
37	0x410e	8.875
38	0x3c21	0.00982666
39	0x3eb1	0.34570312
40	0x3c2c	0.010498047
41	0x3f49	0.78515625
42	0x4135	11.3125
43	0x4178	15.5
44	0x4047	3.109375
45	0x3ddc	0.107421875
46	0x3d37	0.044677734
47	0x3e78	0.2421875
48	0x426b	58.75
49	0x3c63	0.0138549805
50	0x3fff	1.9921875
51	0x4202	32.5
52	0x3ce4	0.027832031
53	0x3c5c	0.013427734
54	0x408d	4.40625
55	0x3d66	0.056152344
56	0x4103	8.1875
57	0x3cbf	0.02331543
58	0x3ed7	0.41992188
59	0x4010	2.25
60	0x428a	69.0
61	0x412d	10.8125
62	0x41f7	30.875
63	0x3d3a	0.045410156

exp_avg f4 [10, 1]
0	0xc1a3d833	-20.480566
1	0x4153b4f7	13.231681
2	0xbe38fc9a	-0.1806511
3	0x417b8a16	15.721212
4	0xbde17f59	-0.11010618
5	0xc1e700b9	-28.875353
6	0xbda24691	-0.07923616
7	0xbddabf5f	-0.106810324
8	0x41c9bee1	25.218203
9	0x3f27c123	0.6552908

exp_avg_sq f4 [10, 1]
0	0x4658d26d	13876.606
1	0x45a15d78	5163.6836
2	0x3f909313	1.1294883
3	0x45eee8b6	7645.089
4	0x3f653a15	0.8954175
5	0x46bba2f3	24017.475
6	0x3ff11429	1.8834277
7	0x3f8895cb	1.0670713
8	0x4698e71f	19571.56
9	0x4318dc2b	152.86003

exp_avg f4 [10]
0	0xc0a67b5e	-5.2025595
1	0x4055fe35	3.3436406
2	0xbd9d2b21	-0.07674242
3	0x407ec5fe	3.9808345
4	0xbd34f1b9	-0.044175837
5	0xc0eb84ca	-7.3599596
6	0xbcf108c4	-0.029423125
7	0xbce88a46	-0.028386246
8	0x40ccc742	6.3993235
9	0x3e23e7b2	0.16006353

exp_avg_sq f4 [10]
0	0x4436e700	731.6094
1	0x438b47eb	278.56186
2	0x3e40f477	0.18843256
3	0x43d9a31a	435.27423
4	0x3d4a808c	0.049438998
5	0x449a4e67	1234.4501
6	0x3deca19f	0.11554264
7	0x3e7ff950	0.24997449
8	0x448354d6	1050.6511
9	0x414829c1	12.510194

exp_avg f4 [10, 10]
0	0x4100086d	8.002057
1	0x410c852a	8.782511
2	0xbd9c4a68	-0.07631379
3	0x4106d843	8.427798
4	0xbc1ed197	-0.009693525
5	0x402cee9b	2.7020633
6	0xbd9f49fe	-0.07777785
7	0xbdecb2ad	-0.11557517
8	0x410d0af5	8.815175
9	0x4021ae2a	2.5262551
10	0xbc9160cb	-0.01774635
11	0xbc75341b	-0.014966036
12	0xbbeba663	-0.0071914657
13	0xbc65e9b9	-0.014032775
14	0xb77b25fe	-1.4969612e-05
15	0xbc30ac1f	-0.010783224
16	0xb99bddf4	-0.00029729272
17	0xba4a84b1	-0.0007725461
18	0xbc761b49	-0.015021154
19	0xbb8d52e5	-0.0043128603
20	0x41281a40	10.506409
21	0x4138546e	11.520613
22	0xbdcd2768	-0.10017282
23	0x4130e6e7	11.056373
24	0xbc508b33	-0.0127285
25	0x4063376b	3.5502574
26	0xbdd116d7	-0.102094345
27	0xbe1b576f	-0.15170072
28	0x41390413	11.563495
29	0x405411ad	3.3135788
30	0xbddee9fe	-0.10884474
31	0xbdf2abb9	-0.1184916
32	0xbbe0e7d0	-0.0068635717
33	0xbde5c616	-0.112194225
34	0x3a036f8e	0.00050138764
35	0xbd330058	-0.0437015
36	0x3bb2a788	0.0054521
37	0x3c06e11e	0.008232383
38	0xbdf38a74	-0.11891642
39	0xbd0bb7f4	-0.03411098
40	0xbf1db2df	-0.6160106
41	0xbf2ac693	-0.6670925
42	0x3c0a9a51	0.008459643
43	0xbf2455a0	-0.64193153
44	0x3a4b8cc9	0.0007764814
45	0xbe554d44	-0.20830256
46	0x3bc50abd	0.006013243
47	0x3c13fd0f	0.009032502
48	0xbf2b6bd9	-0.6696144
49	0xbe42f5ec	-0.19039124
50	0x40915360	4.5414276
51	0x40a00209	5.0002484
52	0xbd31aec1	-0.04337955
53	0x40997daa	4.79659
54	0xbbb411a0	-0.005495265
55	0x3fc3cd34	1.5296998
56	0xbd34ee56	-0.044172607
57	0xbd86749f	-0.065652125
58	0x40a099e4	5.0187855
59	0x3fb82ce2	1.4388697
60	0xbcffb6be	-0.031215068
61	0xbd0c83b3	-0.034305286
62	0x3adba5f7	0.0016757835
63	0xbd06cc3a	-0.03290961
64	0x38c7e139	9.5310104e-05
65	0xbc275576	-0.010213247
66	0x3a8bcb54	0.0010665455
67	0x3ae2793d	0.0017278563
68	0xbd0d0952	-0.034432717
69	0xbc21c9ed	-0.009874803
70	0xc08e9478	-4.4556236
71	0xc09aedf4	-4.841547
72	0x3d549999	0.051904295
73	0xc094e079	-4.6524014
74	0x3bb1d592	0.005427071
75	0xbfc16802	-1.5109866
76	0x3d31331c	0.043261632
77	0x3d846892	0.06465258
78	0xc09b8304	-4.859743
79	0xbfb1fa3f	-1.3904494
80	0xc1c98f7e	-25.195065
81	0xc1dca239	-27.57921
82	0x3e6f3a71	0.23362137
83	0xc1d3c4ef	-26.471159
84	0x3d010e94	0.031508043
85	0xc1088c56	-8.534262
86	0x3e8300d7	0.25586578
87	0x3ec3110c	0.38098943
88	0xc1dd74c6	-27.682018
89	0xc0fdba8c	-7.929022
90	0x40ba6107	5.824344
91	0x40cc4044	6.382845
92	0xbd639339	-0.055560324
93	0x40c4065c	6.1257763
94	0xbbe6d8fc	-0.0070449095
95	0x3ffc1053	1.9692482
96	0xbd67c0ce	-0.056580357
97	0xbdac2fba	-0.084075406
98	0x40cd0303	6.4066176
99	0x3feb0bdd	1.8362995

exp_avg_sq f4 [10, 10]
0	0x44f6be53	1973.9476
1	0x4531d640	2845.3906
2	0x3e8a0e23	0.2696391
3	0x451f4b0c	2548.6904
4	0x3b499347	0.003075795
5	0x4340d67b	192.83781
6	0x3e4ad01b	0.19805948
7	0x3edf88ff	0.43659207
8	0x4531b161	2843.0862
9	0x43877fce	270.99847
10	0x3c286b97	0.010279558
11	0x3c5eed9a	0.013606453
12	0x3c4413fb	0.011967654
13	0x3c438c96	0.011935374
14	0x36af2c7d	5.2205855e-06
15	0x3b8050d6	0.0039158864
16	0x3b84bd1a	0.004050863
17	0x3b6c4bcc	0.003605592
18	0x3c5dd31e	0.013539104
19	0x3a9c9f9d	0.0011949424
20	0x4556faa6	3439.6655
21	0x459afa44	4959.283
22	0x3ef290e0	0.47376156
23	0x458aca3e	4441.2803
24	0x3bb0cf22	0.005395786
25	0x43a8321e	336.39154
26	0x3eb07d48	0.34470582
27	0x3f42a914	0.7603924
28	0x459ada1a	4955.2627
29	0x43ec070d	472.05508
30	0x3ee54563	0.447795
31	0x3f0e2fcc	0.5554168
32	0x3f29440d	0.6611946
33	0x3efec2df	0.4975805
34	0x38eca004	0.00011283162
35	0x3e6cbc4a	0.23118702
36	0x3e3bbb6b	0.18333213
37	0x3e117201	0.14203645
38	0x3f0e12f2	0.5549766
39	0x3d5968fc	0.053078637
40	0x42911cec	72.55649
41	0x42b927fa	92.57808
42	0x3eebfa57	0.46089432
43	0x429f9c52	79.80531
44	0x39b3bb22	0.00034280965
45	0x41274a57	10.455649
46	0x3d62e5ac	0.055394813
47	0x3d0fbcb1	0.03509206
48	0x42b7bcac	91.8685
49	0x40ef7495	7.482981
50	0x44235e76	653.47595
51	0x446a32d2	936.79407
52	0x3dc3a25e	0.095524535
53	0x44514c5b	837.19305
54	0x3a944b8b	0.0011314017
55	0x4282437c	65.131805
56	0x3d85d6f9	0.065351434
57	0x3e130089	0.14355673
58	0x4469ed8a	935.71155
59	0x42b0e153	88.44009
60	0x3d038779	0.03211162
61	0x3d3a5737	0.04549333
62	0x3b068f0f	0.0020532047
63	0x3d267c32	0.040645786
64	0x34a4c428	3.0690103e-07
65	0x3b6bfd31	0.0036009068
66	0x3a3ff897	0.00073231146
67	0x3a906bf7	0.0011018504
68	0x3d3a09e8	0.045419604
69	0x3b8d55de	0.0043132147
70	0x443a8358	746.05225
71	0x448638a2	1073.7698
72	0x3ea87b7b	0.32906708
73	0x446ffde3	959.967
74	0x3abbdbee	0.0014332512
75	0x4292d6ff	73.419914
76	0x3e0a3130	0.13495326
77	0x3e5283fc	0.2055816
78	0x44860d06	1072.407
79	0x42cb5c72	101.68056
80	0x46961994	19212.79
81	0x46d90f6d	27783.713
82	0x404e0b2a	3.2194314
83	0x46c2aa80	24917.25
84	0x3ce43a2f	0.027859775
85	0x44e85680	1858.7031
86	0x400de44f	2.2170599
87	0x408fb518	4.490856
88	0x46d8f792	27771.785
89	0x4525ab89	2650.721
90	0x4472aaaa	970.6666
91	0x44ae4d1e	1394.4099
92	0x3df6fa05	0.12059406
93	0x449c31b8	1249.5537
94	0x3ac4e480	0.0015021712
95	0x42be6dfc	95.21481
96	0x3dc5da25	0.096607484
97	0x3e5b85d3	0.21437769
98	0x44ae2ef0	1393.4668
99	0x4304d71f	132.84032

exp_avg f4 [10]
0	0x402b94ec	2.6809645
1	0xbc3648e8	-0.011125781
2	0x40617a4b	3.5230892
3	0xbd341e2a	-0.04397408
4	0xbe573598	-0.21016538
5	0x3fc21ddb	1.5165361
6	0xbc250a85	-0.010073309
7	0xbfc0711d	-1.503452
8	0xc107a48a	-8.477671
9	0x3ff9fb24	1.9529767

exp_avg_sq f4 [10]
0	0x4347a7a4	199.65485
1	0x3b93011e	0.004486217
2	0x43aea20a	349.26593
3	0x3e863c57	0.2621791
4	0x4178a1bf	15.539489
5	0x428c6900	70.20508
6	0x3b81d789	0.0039624614
7	0x429b8e9c	77.778534
8	0x44eb0e2d	1880.443
9	0x42c52ee3	98.591576

exp_avg f4 [10, 10]
0	0xbc22b593	-0.009930986
1	0xbb93f28a	-0.004514997
2	0xbc19d225	-0.009388481
3	0xbbdcc71c	-0.006737603
4	0xbbcb1ff4	-0.0061988775
5	0xbc25dbc9	-0.010123202
6	0x38a850f9	8.0259466e-05
7	0xbbf9a05d	-0.0076179937
8	0xbc11ca36	-0.0088983085
9	0xbbae9556	-0.005327861
10	0x3c49b7f6	0.012311926
11	0xb96089bf	-0.00021413619
12	0x3c3cb56b	0.011517863
13	0xb997b2ea	-0.00028934266
14	0x3c6cbec0	0.014449775
15	0x3c4d8f28	0.012546338
16	0xb9095a17	-0.00013098899
17	0x3c779e9f	0.015113502
18	0x3c014b5e	0.007891504
19	0x3bd4fc0b	0.0064997724
20	0xbc6b2af4	-0.014353503
21	0xbb8e2902	-0.0043383846
22	0xbc5b45d2	-0.013383346
23	0xbbda836d	-0.006668499
24	0xbc2a873d	-0.01040822
25	0xbc6fbb2c	-0.014632028
26	0x395bc5f3	0.0002095921
27	0xbc49d970	-0.012319908
28	0xbc44c245	-0.012009208
29	0xbbf80b68	-0.007569719
30	0x40152550	2.3304024
31	0xbccae2a8	-0.024766281
32	0x400be99d	2.1861336
33	0xbd09bb79	-0.033626053
34	0x402d3e6f	2.7069356
35	0x40180093	2.375035
36	0xbcc2e0a5	-0.02378876
37	0x4034dcc7	2.8259752
38	0x3fb94dec	1.4476905
39	0x3f9ec5bb	1.2404093
40	0xc0ae235c	-5.4418163
41	0x3d74a86f	0.059730943
42	0xc0a36afa	-5.1068087
43	0x3da5ddcd	0.08098946
44	0xc0c990e4	-6.298937
45	0xc0b179bb	-5.5461097
46	0x3d643feb	0.05572502
47	0xc0d25211	-6.572518
48	0xc056b89d	-3.355018
49	0xc039de68	-2.9041996
50	0xc1201567	-10.005225
51	0x3de6169e	0.11234783
52	0xc11602a2	-9.375643
53	0x3e1be9f3	0.15225963
54	0xc13a5489	-11.645638
55	0xc1232463	-10.196383
56	0x3dd2b575	0.102885164
57	0xc142a64b	-12.165599
58	0xc0c999c1	-6.300019
59	0xc0aa0f21	-5.314347
60	0x405195b9	3.2747633
61	0xbd0ec46f	-0.034855302
62	0x4044532f	3.0675771
63	0xbd41db8d	-0.04732852
64	0x4074a76a	3.8227181
65	0x40559421	3.337166
66	0xbd094eca	-0.033522405
67	0x407fb559	3.9954436
68	0x4004f8df	2.07769
69	0x3fde2425	1.735478
70	0xbc428ba9	-0.011874118
71	0xbab9a025	-0.0014162107
72	0xbc32c39b	-0.010910894
73	0xbb193e0b	-0.0023382928
74	0xbc374638	-0.011186175
75	0xbc464771	-0.012101994
76	0x395c3f55	0.00021004428
77	0xbc4d49f7	-0.012529842
78	0xbc1e21b4	-0.00965159
79	0xbbc6e0e2	-0.0060692886
80	0xc10ff37e	-8.996946
81	0x3dcd536b	0.10025676
82	0xc106eac2	-8.432314
83	0x3e0b1d32	0.13585356
84	0xc1277330	-10.465622
85	0xc112b3f0	-9.16893
86	0x3dbd54d3	0.092446946
87	0xc12ee75c	-10.931484
88	0xc0b4d87b	-5.651426
89	0xc0990061	-4.7812963
90	0x406e8ebe	3.7274623
91	0xbd223be6	-0.039607905
92	0x405fc6fa	3.4965196
93	0xbd5c4fc5	-0.05378701
94	0x408a8e5f	4.3298793
95	0x40731d5e	3.7986674
96	0xbd1bd136	-0.038041316
97	0x4090a830	4.5205307
98	0x4014008e	2.3125339
99	0x3ffde4d5	1.9835459

exp_avg_sq f4 [10, 10]
0	0x3c8cbb62	0.017179195
1	0x3b09caf6	0.0021025515
2	0x3c83d4c6	0.01609267
3	0x3d3cd5fe	0.046102516
4	0x3d09ba22	0.033624776
5	0x3ca49e74	0.020095088
6	0x38f5189e	0.00011687096
7	0x3cac9ea2	0.021071736
8	0x3ca462db	0.02006667
9	0x3c3b6993	0.011438745
10	0x3ddaf6ac	0.1069158
11	0x386f06ad	5.6988258e-05
12	0x3e044d05	0.12920006
13	0x39617edd	0.00021504932
14	0x3ea984e4	0.331092
15	0x3e1ad623	0.15120749
16	0x37b3eca8	2.1448664e-05
17	0x3dd5df08	0.104429305
18	0x3ac64cb8	0.0015129065
19	0x3e1303bc	0.14356893
20	0x3cb3175f	0.02186173
21	0x3a9360a0	0.0011244006
22	0x3ca24fca	0.019813437
23	0x3c9dcdfe	0.019263264
24	0x3d090b0f	0.033457812
25	0x3cb9ebd5	0.022695461
26	0x3839524e	4.418409e-05
27	0x3ce3dc06	0.027814876
28	0x3c64a242	0.013954701
29	0x3bfb8d98	0.0076767914
30	0x43969ccb	301.22495
31	0x3d3920af	0.045197185
32	0x43875828	270.68872
33	0x3e04a6c0	0.12954235
34	0x43e2ad67	453.3547
35	0x439d5103	314.6329
36	0x3d00dd4b	0.03146104
37	0x43cb25d8	406.29565
38	0x428deefc	70.96677
39	0x42c63417	99.10174
40	0x44a4c50f	1318.1581
41	0x3e446a5e	0.19181201
42	0x4493623e	1179.0701
43	0x3e943119	0.2894371
44	0x44f84d42	1986.4143
45	0x44adf256	1391.573
46	0x3e0a58df	0.13510464
47	0x44ec44a5	1890.1451
48	0x43a94ae7	338.58517
49	0x43cb1d6b	406.22983
50	0x45877013	4334.0093
51	0x3f2220d6	0.63331354
52	0x457220d9	3874.053
53	0x3f81ca63	1.0139889
54	0x45cd0014	6560.01
55	0x458f0990	4577.1953
56	0x3ee4418e	0.44581264
57	0x45c27072	6222.0557
58	0x448d154c	1128.6655
59	0x44a7114c	1336.5405
60	0x43f1d9cc	483.70154
61	0x3d90d9e6	0.07072811
62	0x43d8b487	433.41037
63	0x3e1bac19	0.15202369
64	0x44377c5e	733.94324
65	0x43fde621	507.79788
66	0x3d4e35d8	0.05034432
67	0x4427f8dc	671.8884
68	0x42f3f4d7	121.9782
69	0x431af847	154.96983
70	0x3bdc0380	0.0067142844
71	0x39e0f36d	0.00042905976
72	0x3bc56003	0.0060234084
73	0x3b53f5fe	0.0032342668
74	0x3c25e58f	0.010125532
75	0x3be427ae	0.006962738
76	0x380aba18	3.3075077e-05
77	0x3c103f09	0.008804091
78	0x3b0fff02	0.0021972065
79	0x3b16245f	0.0022909862
80	0x454affbb	3247.9832
81	0x3ef05fca	0.4694808
82	0x45357269	2903.1506
83	0x3f2c3a17	0.6727614
84	0x4599506b	4906.0522
85	0x455653f1	3429.2463
86	0x3eaaa8bd	0.33331862
87	0x4591f457	4670.5425
88	0x445369e9	845.65485
89	0x4479c10a	999.01624
90	0x4437d2d8	735.29443
91	0x3dda7550	0.10666907
92	0x44255bcd	661.4344
93	0x3e87b717	0.26506874
94	0x448b3438	1113.6318
95	0x4440695e	769.64636
96	0x3d9d7fc3	0.07690384
97	0x4478aa3e	994.66003
98	0x432de065	173.87654
99	0x43720051	242.00124

exp_avg f4 [10]
0	0xbbd0da6e	-0.006373695
1	0x3b91d1c2	0.004450054
2	0xbc0c5e60	-0.008567423
3	0x3f527c25	0.8222068
4	0xbff53a77	-1.9158467
5	0xc064ed1a	-3.5769715
6	0x3f965536	1.1744754
7	0xbbcf59ed	-0.0063278587
8	0xc04d7865	-3.2104733
9	0x3fa80623	1.3126873

exp_avg_sq f4 [10]
0	0x3d2dcc99	0.042431448
1	0x3dbfa650	0.093578935
2	0x3ca29427	0.019846035
3	0x421038f1	36.055607
4	0x42e0652c	112.1976
5	0x43bdd0e6	379.63202
6	0x42555045	53.32839
7	0x3a903699	0.00110026
8	0x438bf161	279.88577
9	0x42b0ecca	88.46248

exp_avg f4 [10, 10]
0	0xbc2c840e	-0.010529531
1	0xbbafe4e8	-0.005367864
2	0xbc975690	-0.018473893
3	0x3fed85b4	1.8556428
4	0x3f179bff	0.59222406
5	0x3f4dcb9d	0.80388814
6	0x3fc9ae8e	1.5756395
7	0xbc6c47ae	-0.014421387
8	0x3ee42fe9	0.44567803
9	0x40037232	2.053845
10	0xbc02c4bd	-0.007981476
11	0xbb85068c	-0.0040596183
12	0xbc6555e3	-0.013997528
13	0x3fb3b7bd	1.4040447
14	0x3ee53ca3	0.44772825
15	0x3f1b963d	0.6077612
16	0x3f989c08	1.1922617
17	0xbc32d185	-0.010914211
18	0x3eac715d	0.3368024
19	0x3fc6e6db	1.5539201
20	0xbb4cab18	-0.003122991
21	0xbae22cab	-0.0017255744
22	0xbbb3cd3f	-0.0054871137
23	0x3f0f3d81	0.5595322
24	0x3e4e46f9	0.20144261
25	0x3e8b3e17	0.27195808
26	0x3ef0b382	0.47011954
27	0xbb8da577	-0.0043227035
28	0x3e235cfb	0.15953438
29	0x3f1fdebd	0.62449247
30	0xbc7ff652	-0.015622692
31	0xbc02ac8d	-0.00797571
32	0xbce1a286	-0.027543318
33	0x4031d708	2.7787495
34	0x3f554134	0.8330262
35	0x3f926d53	1.1439613
36	0x4017cbc7	2.3718126
37	0xbcb0a43a	-0.021562684
38	0x3f1cb7c4	0.61217904
39	0x404505aa	3.0784707
40	0x3d1bd640	0.03804612
41	0x3c5a38b6	0.013319185
42	0x3d6bd301	0.057574276
43	0xc0894915	-4.290171
44	0xbfc56202	-1.5420535
45	0xc005f808	-2.0932636
46	0xc066a3df	-3.603752
47	0x3d31c140	0.04339719
48	0xbf9c694e	-1.2219636
49	0xc0997f53	-4.7967925
50	0xbba73cae	-0.005103669
51	0xbb3bbc30	-0.0028646104
52	0xbc12c41a	-0.008957887
53	0x3f69ab33	0.91276854
54	0x3eadebf7	0.3396909
55	0x3eea7a45	0.4579641
56	0x3f43aae5	0.7643264
57	0xbbe79fc5	-0.0070686066
58	0x3e8b807e	0.2724647
59	0x3f82acee	1.0209024
60	0xbc2f2cfa	-0.010691876
61	0xbbb390ed	-0.005479923
62	0xbc99ad8e	-0.018759515
63	0x3ff15f6f	1.8857249
64	0x3f19c776	0.6006998
65	0x3f5128a6	0.8170265
66	0x3fcd05f2	1.6017439
67	0xbc702155	-0.0146563845
68	0x3ee78d1f	0.45224854
69	0x4005b74e	2.089313
70	0x3c8e3582	0.017359499
71	0x3c11e762	0.008905264
72	0x3cf6419d	0.030060584
73	0xc038fc18	-2.8903866
74	0xbf80dbfc	-1.0067134
75	0xbfaf718a	-1.3706524
76	0xc01bf1cb	-2.4366329
77	0x3cc1149f	0.023569403
78	0xbf4a4ea0	-0.7902622
79	0xc04e97ad	-3.2280076
80	0xbc3584a1	-0.0110789845
81	0xbbbb8705	-0.0057228827
82	0xbc9f893e	-0.019474622
83	0x3ffb2604	1.9620976
84	0x3f201086	0.6252521
85	0x3f59ffc2	0.8515588
86	0x3fd531ef	1.6655864
87	0xbc79bdda	-0.015243018
88	0x3ef16a6e	0.47151512
89	0x400b3684	2.1752024
90	0xbc8b4ebd	-0.017005319
91	0xbc1c65fb	-0.009545798
92	0xbcf4c743	-0.029880172
93	0x40436cfb	3.0535266
94	0x3f905980	1.1277313
95	0x3fc2ab57	1.5208539
96	0x4023c936	2.559156
97	0xbcc137d5	-0.023586193
98	0x3f66e3c5	0.901913
99	0x405a7dd7	3.4139307

exp_avg_sq f4 [10, 10]
0	0x3c2b8d09	0.010470637
1	0x3dc34c11	0.09535993
2	0x3cebdcb2	0.02879176
3	0x43802133	256.25937
4	0x414c9497	12.786277
5	0x419d92cb	19.696676
6	0x434f5d44	207.36432
7	0x3ca69ba0	0.02033788
8	0x40abd634	5.369898
9	0x438fbebf	287.4902
10	0x3c4eec0d	0.012629521
11	0x3b0b5bbc	0.0021264395
12	0x3c60dd37	0.013724617
13	0x42c837d8	100.10907
14	0x40d3b518	6.615856
15	0x4120a194	10.039448
16	0x429aad36	77.3383
17	0x3c0b3d90	0.008498564
18	0x40362aaa	2.846354
19	0x42e29321	113.28736
20	0x3c0e6ebe	0.008693395
21	0x3c544fdd	0.012958494
22	0x3b80e232	0.0039332146
23	0x417e4569	15.891946
24	0x3f514e4d	0.817601
25	0x3f9a6fc5	1.2065359
26	0x4152a339	13.164849
27	0x3ac36f31	0.0014910457
28	0x3ecf436a	0.4048112
29	0x419132db	18.149832
30	0x3d255447	0.040363576
31	0x3e882440	0.26590157
32	0x3dd944ba	0.10608812
33	0x44692863	932.63104
34	0x426ba105	58.907246
35	0x42b611b3	91.03457
36	0x4437629d	733.54083
37	0x3d9c422f	0.07629811
38	0x41d654fd	26.791498
39	0x44838a6c	1052.3257
40	0x3d34d32c	0.0441467
41	0x3bb053c4	0.0053810794
42	0x3de6eedc	0.112760276
43	0x4469c6a7	935.10394
44	0x42a32032	81.56288
45	0x42f70e03	123.52737
46	0x442e68a7	697.6352
47	0x3da288cc	0.07936248
48	0x4218cc90	38.199768
49	0x44852fb3	1065.4906
50	0x3ba6d3ad	0.0050911517
51	0x3ced5fa5	0.02897627
52	0x3c17178a	0.009221921
53	0x429a43d1	77.132454
54	0x402cc0b4	2.6992617
55	0x4083dce5	4.1207147
56	0x4283f6f6	65.982346
57	0x3bce35be	0.0062930277
58	0x3f99bda2	1.2010996
59	0x42aed35c	87.41281
60	0x3bf7f609	0.0075671715
61	0x3e2a2254	0.16614658
62	0x3cad329a	0.021142293
63	0x433bceb8	187.8075
64	0x411e218b	9.883189
65	0x41702502	15.009035
66	0x4317ebb0	151.92065
67	0x3c6faa37	0.014627985
68	0x4083ecf7	4.1226764
69	0x43542b2c	212.16864
70	0x3cf41cf3	0.02979896
71	0x3d063a96	0.032770716
72	0x3d739061	0.059463862
73	0x43f2817d	485.01163
74	0x422827f5	42.03902
75	0x427cf7fd	63.242176
76	0x43b4d062	361.628
77	0x3d2a9979	0.04165027
78	0x419b2d69	19.397173
79	0x4409d6da	551.35706
80	0x3c81a0d7	0.015823765
81	0x3b614ca6	0.0034377961
82	0x3d30e457	0.04318651
83	0x43bd6525	378.7902
84	0x41b8c2a0	23.095032
85	0x420d5798	35.33554
86	0x4393d140	295.63477
87	0x3cfe86c4	0.03107012
88	0x411b4909	9.705331
89	0x43d4df8d	425.7465
90	0x3caa7f74	0.020812728
91	0x3df50fd3	0.11965909
92	0x3d5cc3dd	0.053897727
93	0x43ecf0d9	473.88162
94	0x4205860b	33.3809
95	0x424d6768	51.350983
96	0x43b8e70d	369.80508
97	0x3d1fe681	0.039038185
98	0x417d3e67	15.827735
99	0x44067b9c	537.9314

exp_avg f4 [10]
0	0x3eed31b6	0.4632699
1	0x3eb35c94	0.3503157
2	0x3e1af1a4	0.15131241
3	0x3f33b564	0.70198655
4	0xbf9635f0	-1.173521
5	0x3e80eec5	0.25182167
6	0x3ef3883f	0.47564885
7	0xbf492acd	-0.78580934
8	0x3eff9fb9	0.49926546
9	0x3f56cfc6	0.8391079

exp_avg_sq f4 [10]
0	0x41908697	18.065718
1	0x40adb174	5.4279118
2	0x3fede6d4	1.8586068
3	0x42674d0f	57.825253
4	0x42252f54	41.29622
5	0x40f8ffaf	7.7812114
6	0x415b80fb	13.718989
7	0x41a822fa	21.017078
8	0x419a59ad	19.293787
9	0x41f0186d	30.011927

exp_avg f4 [10, 10]
0	0x3f63f3f5	0.89044124
1	0x3f75dab9	0.9603687
2	0x3e03386b	0.1281449
3	0x3f851ca6	1.0399368
4	0x3ed73b4a	0.4203742
5	0x3f1e086d	0.61731607
6	0x3ddb73ea	0.10715468
7	0x3f1ec6d2	0.62022126
8	0x3f7199a6	0.94375074
9	0x3f4c8ba9	0.79900604
10	0xbbc4f0b2	-0.0060101384
11	0xbb74cdb5	-0.0037354056
12	0x3b063f4a	0.00204845
13	0xbba5e6b5	-0.005062903
14	0xbb2e9aac	-0.0026642485
15	0xbb01d605	-0.0019811403
16	0xbb133cea	-0.0022466728
17	0xbb79a113	-0.0038090392
18	0xbb6f5e94	-0.0036524879
19	0xbb82e551	-0.003994622
20	0x3ed96a33	0.42463836
21	0x3ef3aa5e	0.47590917
22	0x3dec334e	0.11533223
23	0x3f12fbaf	0.5741529
24	0x3e1fc0ac	0.15600842
25	0x3ebe6ac4	0.3719083
26	0x3dea0a72	0.114277735
27	0x3e5a081d	0.21292157
28	0x3eea0468	0.45706487
29	0x3efd578a	0.4948085
30	0x3fa61356	1.2974651
31	0x3fb23f78	1.3925619
32	0x3e3fa065	0.1871353
33	0x3fc059ad	1.5027367
34	0x3f21717f	0.63063806
35	0x3f64035d	0.8906763
36	0x3e1a0b1a	0.15043297
37	0x3f712cf8	0.9420924
38	0x3faf46c6	1.3693473
39	0x3f91d88e	1.1394212
40	0x3f849a5d	1.0359608
41	0x3f916c02	1.1361086
42	0x3e2dee05	0.16985328
43	0x3f9f4145	1.2441794
44	0x3eecc70e	0.46245617
45	0x3f41d56d	0.75716287
46	0x3e130598	0.14357603
47	0x3f2a4b07	0.6652073
48	0x3f8e8a2a	1.1135914
49	0x3f80b1c4	1.005425
50	0x3f760788	0.9610524
51	0x3f842dae	1.032644
52	0x3e0cbfb9	0.13745011
53	0x3f8e4852	1.111582
54	0x3ef13883	0.47113428
55	0x3f280cfb	0.65644807
56	0x3ddbbfa6	0.107299134
57	0x3f33357d	0.7000349
58	0x3f820649	1.0158168
59	0x3f562159	0.83644634
60	0x3f416a0f	0.7555246
61	0x3f530f6a	0.82445395
62	0x3df41547	0.11918121
63	0x3f665182	0.8996812
64	0x3eb083ea	0.34475642
65	0x3f0b2e8b	0.54367894
66	0x3dcdfcdb	0.10057994
67	0x3eff4b8d	0.49862328
68	0x3f4f0ab4	0.80875707
69	0x3f37977e	0.71715534
70	0x3f873806	1.0563972
71	0x3f8dd8c6	1.1081779
72	0x3e111216	0.14167055
73	0x3f9949e5	1.1975676
74	0x3f0c51fe	0.5481261
75	0x3f3769c8	0.71645784
76	0x3df1cd3e	0.11806725
77	0x3f5132fb	0.81718415
78	0x3f8b86b9	1.0900489
79	0x3f662815	0.8990491
80	0xbfce8bb2	-1.6136382
81	0xbfdc9c19	-1.7235137
82	0xbe7a5cf6	-0.24449524
83	0xbff0b3f9	-1.8804923
84	0xbf49a814	-0.7877209
85	0xbf903359	-1.126567
86	0xbe667746	-0.22506437
87	0xbf95d6ca	-1.1706173
88	0xbfd887c9	-1.6916438
89	0xbfba90e8	-1.4575472
90	0xbc28dc5c	-0.010306444
91	0xbc94d88a	-0.01816966
92	0xbc1b975c	-0.009496536
93	0xbc7b9fe8	-0.015357949
94	0xbbbe8896	-0.005814622
95	0xbc852c8c	-0.016256593
96	0x3c205b1e	0.009787349
97	0xbbfd1066	-0.007722902
98	0xbc92f185	-0.017937431
99	0xbc3db5eb	-0.011579017

exp_avg_sq f4 [10, 10]
0	0x424b7a54	50.86946
1	0x4287e8cb	67.95467
2	0x40e265d9	7.0749326
3	0x42b7f55a	91.9792
4	0x409225d6	4.5671186
5	0x4200aee2	32.170784
6	0x410e8682	8.907839
7	0x411068fa	9.025629
8	0x4262258b	56.536663
9	0x428bfb90	69.99133
10	0x3bd846b1	0.006600224
11	0x3bbfbc8d	0.0058513344
12	0x3c7c6722	0.015405448
13	0x3bec6668	0.007214356
14	0x3b746859	0.0037293641
15	0x3b6b5848	0.0035910774
16	0x3bce767e	0.0063007465
17	0x3cb9c8ec	0.022678815
18	0x3ba69adc	0.0050843786
19	0x3b8bd17a	0.004266915
20	0x41d8a8ec	27.082481
21	0x421177ec	36.36711
22	0x4040670f	3.0062902
23	0x4243891c	48.883896
24	0x4013ba34	2.30824
25	0x418f8aab	17.942709
26	0x40804c02	4.0092783
27	0x40830eb3	4.0955443
28	0x41fbbe11	31.467806
29	0x4220c280	40.18994
30	0x4316824c	150.50897
31	0x4355a000	213.625
32	0x41aa3c8e	21.279568
33	0x438f9d41	287.22855
34	0x41223ffa	10.140619
35	0x42af2eef	87.59167
36	0x41de2e25	27.772532
37	0x41a6b18f	20.836699
38	0x432a05a7	170.02208
39	0x43432ccd	195.175
40	0x42d4379e	106.10863
41	0x431577e9	149.4684
42	0x416cc8bb	14.799006
43	0x4348df04	200.87115
44	0x40f4d7f2	7.6513605
45	0x42800b9d	64.02268
46	0x41978571	18.940157
47	0x4172d528	15.17704
48	0x42f2ee0e	121.46495
49	0x430f9824	143.5943
50	0x428b9dee	69.80846
51	0x42c2b56e	97.354355
52	0x4123ffb7	10.24993
53	0x4302b188	130.69348
54	0x40a8df3b	5.27725
55	0x4225c6d3	41.444164
56	0x414c85a0	12.782623
57	0x412f1b06	10.9440975
58	0x429d1003	78.53127
59	0x42b61ad2	91.05238
60	0x422acf07	42.702175
61	0x4266278e	57.538628
62	0x40bfb204	5.9904804
63	0x429bcf30	77.90466
64	0x40643859	3.5659392
65	0x41d9e0b1	27.234713
66	0x40f0dce7	7.5269656
67	0x40de1df9	6.941159
68	0x423f1e62	47.77967
69	0x426eca07	59.697292
70	0x428b6217	69.69158
71	0x42bd22d2	94.56801
72	0x411578b8	9.341972
73	0x42ff0e55	127.52799
74	0x40b76906	5.7315702
75	0x422ba08d	42.906788
76	0x4141610d	12.086194
77	0x41349ecd	11.28877
78	0x429b2bf1	77.58582
79	0x42bbd36e	93.91295
80	0x430ef532	142.9578
81	0x433f6ce7	191.4254
82	0x418c2a4c	17.520653
83	0x4382ce02	261.60944
84	0x41801a9d	16.012995
85	0x42bbb86a	93.86018
86	0x41ad2630	21.643646
87	0x41f452df	30.540464
88	0x4326d1c0	166.81934
89	0x43583f63	216.2476
90	0x3c32904b	0.01089866
91	0x3c401dd1	0.011725859
92	0x3f0831aa	0.5320078
93	0x3c7057d3	0.014669376
94	0x3b22dc7a	0.0024850653
95	0x3d6e99b6	0.05825206
96	0x3e38329b	0.17988054
97	0x3eaa9393	0.33315715
98	0x3c1b625e	0.009483902
99	0x3c36a421	0.01114753

exp_avg f4 [10]
0	0x3e99d373	0.30044135
1	0xb8156641	-3.56196e-05
2	0x3e0e1aee	0.1387746
3	0x3ee3404b	0.4438499
4	0x3eb039c9	0.34419087
5	0x3ea93396	0.3304717
6	0x3e810834	0.2520157
7	0x3ebaa64f	0.36455008
8	0xbf09912c	-0.5373714
9	0xbc582f53	-0.013194877

exp_avg_sq f4 [10]
0	0x408aa000	4.3320312
1	0x3b0697e6	0.0020537316
2	0x3ff164ec	1.8858924
3	0x415a3c98	13.639793
4	0x41139a4e	9.225172
5	0x40cb5a39	6.3547635
6	0x4066e978	3.6079998
7	0x40bf7500	5.983032
8	0x412b6211	10.711442
9	0x3d3c330a	0.045947112

exp_avg f4 [10, 10]
0	0x3f048b20	0.5177479
1	0xbbe7c9db	-0.0070736236
2	0x3dd0cede	0.10195707
3	0x3ef69dfd	0.4816741
4	0x3ea724d6	0.3264529
5	0x3ec7274f	0.38897178
6	0x3eb6fcd5	0.3573977
7	0x3eadb8c6	0.33930033
8	0x3c90c65d	0.017672712
9	0xbbc3c9ea	-0.0059749978
10	0x3f3e8c4a	0.74432814
11	0xbb655a32	-0.0034996388
12	0x3e1431e6	0.1447216
13	0x3f337337	0.7009768
14	0x3eeee278	0.46657157
15	0x3f109628	0.5647912
16	0x3f02ca2c	0.5108974
17	0x3ef8bb40	0.4858036
18	0x3d6b3903	0.057427417
19	0xbbfbcaa0	-0.007684067
20	0xbe7c6643	-0.24648385
21	0x3b149f86	0.0022678091
22	0xbd2d7dd6	-0.042356335
23	0xbe6b4ed3	-0.22979288
24	0xbe19a90f	-0.15005897
25	0xbe42f532	-0.19038847
26	0xbe288311	-0.16456248
27	0xbe23c152	-0.15991715
28	0xbcb8181c	-0.022472434
29	0xbb687960	-0.0035472736
30	0x3f225f8c	0.6342704
31	0xbb971d59	-0.004611653
32	0x3e08b904	0.13351828
33	0x3f197c6f	0.59955496
34	0x3edba10a	0.428963
35	0x3ef4b8f6	0.47797364
36	0x3ef075e0	0.4696493
37	0x3ed803ae	0.42190307
38	0x3d2f3f7b	0.04278515
39	0xbbef5966	-0.0073043583
40	0x3f440079	0.7656322
41	0xbbb481e3	-0.0055086478
42	0x3e1ddc2f	0.15416025
43	0x3f39a96a	0.7252413
44	0x3efea5fd	0.49736014
45	0x3f14947c	0.5803907
46	0x3f0b6b3c	0.544605
47	0x3f0031cf	0.50076
48	0x3d8d0155	0.0688502
49	0xbc1158b6	-0.008871248
50	0x3f57a78a	0.8424002
51	0xbbd36554	-0.0064512882
52	0x3e24e6d0	0.16103673
53	0x3f4bd7e3	0.7962629
54	0x3f053a95	0.52042514
55	0x3f2421cc	0.6411407
56	0x3f11e07a	0.5698315
57	0x3f0ac3a2	0.5420476
58	0x3dad090b	0.084489904
59	0xbc2094e9	-0.009801128
60	0x3e119b38	0.14219368
61	0xbc536cdf	-0.012904375
62	0x3b3913a4	0.0028240466
63	0x3df2fe74	0.11864939
64	0x3d4dba55	0.05022653
65	0x3dd5683a	0.1042027
66	0x3d65f128	0.056138188
67	0x3daa9119	0.083284564
68	0xbcd02d06	-0.025412094
69	0xbca96dd2	-0.02068225
70	0x3f8f9ce3	1.1219753
71	0xbc1358d0	-0.0089933425
72	0x3e5c1dbb	0.21495716
73	0x3f877e20	1.0585365
74	0x3f31e487	0.6948933
75	0x3f5a427b	0.8525769
76	0x3f42cc67	0.76093143
77	0x3f395651	0.72397333
78	0x3dd39e87	0.10332971
79	0xbc55517e	-0.0130199175
80	0x3f6bc0da	0.92091143
81	0xbbd25f7e	-0.006420075
82	0x3e2ea320	0.17054415
83	0x3f619e83	0.88132495
84	0x3f0df525	0.55452186
85	0x3f357305	0.7087863
86	0x3f1b6c7d	0.60712415
87	0x3f141c72	0.57855904
88	0x3e13adec	0.14421815
89	0xbc2ea4ef	-0.01065944
90	0x3f1523d1	0.58257776
91	0xbc50ff4a	-0.012756178
92	0x3de919c0	0.113818645
93	0x3f09f449	0.53888375
94	0x3ebb210e	0.36548656
95	0x3ee32480	0.44363785
96	0x3ecce136	0.40015572
97	0x3ec2a277	0.38014576
98	0x3ccf8a9e	0.025334653
99	0xbc00028b	-0.007813106

exp_avg_sq f4 [10, 10]
0	0x41ed6c42	29.67786
1	0x3ae5041e	0.001747254
2	0x40ab54dc	5.354109
3	0x41c961bf	25.172728
4	0x41ad6b4c	21.677391
5	0x415fd81d	13.990262
6	0x41ddc3d9	27.720629
7	0x413b5be1	11.709931
8	0x3dedab71	0.116049655
9	0x3c507584	0.01272333
10	0x428ed616	71.41814
11	0x3b81eaef	0.003964774
12	0x41457ae4	12.342503
13	0x426aa5bd	58.661854
14	0x424ee7c4	51.726334
15	0x420404db	33.00474
16	0x4284466f	66.137566
17	0x41da05e5	27.252878
18	0x3ea62513	0.3245016
19	0x3d3df1d5	0.046373207
20	0x40e92399	7.2855954
21	0x3a444da0	0.00074883737
22	0x3fad4784	1.353745
23	0x40c7ad17	6.239879
24	0x40b7e739	5.7469754
25	0x405ea202	3.4786382
26	0x40df49d0	6.9777603
27	0x4041c329	3.0275366
28	0x3d30975c	0.043113098
29	0x3bbb8962	0.0057231644
30	0x4214abc3	37.167736
31	0x3b0a7457	0.0021126473
32	0x40cb8bab	6.3607993
33	0x42013517	32.301846
34	0x41d966b5	27.17515
35	0x4190c6ee	18.097134
36	0x4206df98	33.718353
37	0x417d11b6	15.816824
38	0x3dba50e8	0.09097463
39	0x3b64e4b4	0.0034926357
40	0x4295ed73	74.96377
41	0x3b8fdc3e	0.0043902686
42	0x414fbaaf	12.983077
43	0x4277e243	61.97096
44	0x425a5821	54.586063
45	0x420ad544	34.708267
46	0x428af30e	69.47472
47	0x41ea135e	29.259457
48	0x3e920862	0.2852202
49	0x3d287ac3	0.0411327
50	0x42ad312a	86.59602
51	0x3ba55279	0.005045232
52	0x4179ac8d	15.604627
53	0x429187cd	72.765236
54	0x427fc107	63.938503
55	0x42232269	40.783604
56	0x42a1f0ba	80.97017
57	0x42087f43	34.12428
58	0x3eca6c5f	0.39535806
59	0x3d6f7372	0.058459707
60	0x3e16895c	0.14700836
61	0x3ab4e342	0.0013800638
62	0x39ab54fc	0.0003267898
63	0x3e0794d0	0.13240361
64	0x3cb11af4	0.021619298
65	0x3dbf9c83	0.09356024
66	0x3ce43dbd	0.02786147
67	0x3d21a975	0.039468247
68	0x3d0b658c	0.03403239
69	0x3c174297	0.009232185
70	0x43432a10	195.1643
71	0x3c3b1868	0.011419393
72	0x420b7a7d	34.869617
73	0x431ea724	158.6529
74	0x430ecb2a	142.79361
75	0x42b10224	88.50418
76	0x4337e3be	183.88962
77	0x4291f40a	72.97664
78	0x3f5ca981	0.8619614
79	0x3e0be451	0.13661315
80	0x42e2162d	113.04331
81	0x3bd773d2	0.006575086
82	0x419b214a	19.391254
83	0x42b5b750	90.85803
84	0x42a288cb	81.26717
85	0x424ba640	50.912354
86	0x42d23f74	105.12393
87	0x42273c0e	41.808647
88	0x3ef6d065	0.48205867
89	0x3d99e783	0.075148605
90	0x420bb729	34.928867
91	0x3b0b3826	0.0021243184
92	0x40c3e02c	6.1211147
93	0x41ef08ac	29.879234
94	0x41cce558	25.611984
95	0x418745be	16.909054
96	0x420040f5	32.063435
97	0x4162e957	14.181968
98	0x3e39e3f1	0.18153359
99	0x3cb7f8e8	0.022457555
